experiments/experiment1_20251030_122154/trained_models/FBP_ThreeL_SSNet.pth (torch, 312952 bytes, 13 tensors)

layer1.0.weight f4 [128, 1, 3, 3]
00000000: fbc9 35bf 0bb6 fcbe c2cd 0dbf 0dd1 98be
00000010: 8619 3dbf 1b5b 11bf efcc 47bf f9b8 6dbf
00000020: 9946 a9be 267a 9dbe ce7a 3abf 5aa2 20bf
00000030: baab 24bf b019 f8be 63a1 3cbf bd61 07bf
00000040: f639 b5be 8c2f 16bf 0165 5e3f f873 d83e
00000050: e78c 113f 0b54 703f 8212 213f 433e 9b3e
00000060: cbbe 553f 7779 173f da23 053f 44eb 30bf
00000070: aff4 fdbe 1732 1140 6a60 25be 8edb 0bbf
00000080: 40b5 a1bc 49d7 1bbf 6630 4abf a823 1cbf
00000090: fd04 2ebf 3acc a7be 1af4 20bf 5def 31bf
000000a0: 71d1 00bf 68f4 62bf 3856 28bf 36da 2bbf
000000b0: 7842 67bf cb47 60bf 063e 51bf 8453 02bf
000000c0: dcab fcbe aa01 3bbf 3877 20bf c0c0 0dbf
000000d0: b92a 00bf 4ea9 eabe ea28 b33f 6a3d 663f
000000e0: 2045 a6bf 3d2c 56c0 e650 3e40 1aa0 69be
000000f0: 91aa 9f3e 079d de3f 4e5e 77bf 3f2c 55be
00000100: 59e3 08bf 6704 0bbf b35e c8be 120a 81bf
00000110: 68a5 273d 220d 1cbf 3e02 6abe d3f4 333e
00000120: 1a80 b1bf da78 f3bd d801 2dbf e73c 79be
00000130: f855 743f e050 813e de8f da3f 5ca6 4340
00000140: 12c2 0f3f 05c0 52bf ac2c cb3e b720 2d3f
00000150: 592f 92bf f21a 193f 8931 b33f 167b 89bf
00000160: f76d 843f 066e 5a3f 1eaa 82bf 9576 a2bd
00000170: 5ebd 00bd cc61 7ebe 0cfd 4ebe 2dd9 babd
00000180: 18c3 7fbf f371 98be 6a9b 07bf 3266 06bf
00000190: b747 01bf b5aa 37bf 5cfc 15bf b9c1 1fbf
000001a0: 5dfb ccbe 2c15 eebe 677f 15bf 6398 63bf
000001b0: 4e14 a53e 0b9f 8c3e 0de9 fb3e efb0 143f
000001c0: 9ca2 4e3f 562c 0f3f de9f 493f 10dc 163f
000001d0: 8ea4 303f 9f3b e8bd b8e8 0440 af4e 1cbf
000001e0: e2dc 3ebf 4056 2cbe f0eb 3fbf 8a19 e93d
000001f0: 767b cdbe 2648 52bf 9039 82bf 2c8f 6bbf
00000200: 187a 70bf f2fc dcbe 09e5 aabe aef3 ddbe
00000210: 1c94 b7bd 0468 1cbe 1d60 dfbe ae1b 573f
00000220: 4416 b23e 1e90 ee3e 965f 1c3f 0cbe 453f
00000230: 2ae1 353f fd3d 373f b053 453f 4d62 c53e
00000240: d4bf 5abf c40c 02bf 952b 68be 3492 7ebe
00000250: 0f3b aabe 56be 3ebf 50fd 4d3f 538c 203f
00000260: 3475 96c0 aa2d d53e fb6e 5b3f 0cd0 de3e
00000270: dbe0 4d3f da4f e43e f858 023f c10b 3c3f
00000280: 2176 1b3f 0267 4a3f 6531 16bf 0471 6fbf
00000290: 9510 e9be 845d a1bf 60d7 a63f bd76 52bf
000002a0: 812e f53e 071e 473f 3742 2b3f 0ce4 6ebf
000002b0: 7484 25bf fb36 a63d c443 2bbf 7009 05bf
000002c0: 0ca9 fd3e 43ad 29bf 8967 76bf 61d3 ddbe
000002d0: ad89 c3be 49ab 1cbf f72b 64bf 967f 1ebf
000002e0: 6aa1 51bf 633e 5bbf c76d b6be 6438 14bf
000002f0: f1ba 00bf 5c9e 873e 8120 30c0 0a6e 67be
00000300: b940 273f 809d 93bf 8b87 cebd 30a2 d6bf
00000310: 48df 0fc0 4418 083e 1bfa b6be 0a02 6cbf
00000320: 5e21 34bf 23a4 3bbf 76db dfbe fdfc aebe
00000330: 194a dbbe ce9b 5fbf ebe5 32bf 9ce2 e6be
00000340: c1ec 2bbf 6275 4dbf af52 efbe b2bc 4bbf
00000350: 55d8 8abe 6436 46bf 68dd 4dbf 4ec1 3abf
00000360: af17 08bf 0a66 5dbf 0ff3 0cbf ff1e 27bf
00000370: 1d3e 4abf fa82 acbe a3fa 1abf 503c 17bf
00000380: 8b87 60bf f59b 223f 0f67 5cbf 5939 3ebf
00000390: c187 fe3e a5a3 1ebf 1521 48bf 802a 383f
000003a0: 6aba 19bf e91f 0bbf 23e3 c7be 1fc2 c7be
000003b0: 3fd5 ecbe 4a9e 43bf 2fee 1abf e1a8 26bf
000003c0: 737b 65bf b37d f4be 7640 6cbf 7aac c1be
000003d0: 1aec 5abf 8717 cabe 411c 5fbf 0bdd 1ebf
000003e0: 3b34 45bf 81d6 18bf 0276 28bf 696a 22bf
000003f0: 2ad8 d93e 8f91 203f adc4 4b3f 9308 2d3f
-0.7101132 -0.49357638 -0.55392087 -0.29846993 -0.7386707 -0.5677964 -0.7804708 -0.9286037
-0.33061674 -0.30757254 -0.72843635 -0.6274773 -0.64324534 -0.48457098 -0.73683757 -0.5288351
-0.35395783 -0.586663 0.8687287 0.42275977 0.56855625 0.9387824 0.62918866 0.3032094
0.8349425 0.59169716 0.5200783 -0.69108987 -0.4960074 2.2686822 -0.1615006 -0.5463189
-0.019739747 -0.60875374 -0.789801 -0.6099191 -0.6797636 -0.32773 -0.6287247 -0.69505864
-0.5031958 -0.88654184 -0.6575656 -0.6712984 -0.903358 -0.8760955 -0.81735265 -0.50908685
-0.49349868 -0.73049414 -0.62681913 -0.5537224 -0.5006519 -0.45832294 1.3996861 0.8993746
-1.2989845 -3.34645 2.9736876 -0.2281498 0.3118482 1.7391671 -0.9662827 -0.2081766
-0.53471905 -0.5430359 -0.3913475 -1.0081198 0.040929228 -0.6095754 -0.22852418 0.17573862
-1.3867218 -0.11888285 -0.6758094 -0.24339639 0.9544368 0.25257015 1.7075155 3.0570288
0.561555 -0.8232425 0.3968252 0.67628044 -1.1420699 0.5980674 1.3999492 -1.0740688
1.0346059 0.8532413 -1.0208166 -0.07932774 -0.031430595 -0.24841994 -0.20213717 -0.09123454
-0.99907064 -0.29774436 -0.5297152 -0.5249969 -0.50500053 -0.71744853 -0.58588195 -0.6240497
-0.40035525 -0.46500528 -0.58397526 -0.889044 0.32242054 0.2746509 0.4920124 0.5808248
0.8071687 0.55927026 0.7875956 0.5892954 0.6900109 -0.11339497 2.076704 -0.6105756
-0.7455579 -0.16829777 -0.7496939 0.11381824 -0.40133256 -0.8214134 -1.0173817 -0.9201534
-0.939363 -0.43161732 -0.33377865 -0.43349975 -0.089637965 -0.15274054 -0.43628016 0.8402661
0.34782612 0.46594328 0.6108335 0.77243114 0.710467 0.7157896 0.7708082 0.3855156
-0.85448956 -0.5080073 -0.22672875 -0.2486046 -0.33248183 -0.7450918 0.8046465 0.6271412
-4.701807 0.416364 0.8571622 0.43518102 0.8042123 0.44592172 0.50917006 0.73455435
0.60727125 0.7906343 -0.5866912 -0.93531823 -0.45520464 -1.2606664 1.3034477 -0.8221243
0.47887042 0.77780193 0.6689791 -0.9331672 -0.6465523 0.081159554 -0.6690028 -0.51967525
0.49543035 -0.6628 -0.9625173 -0.43325332 -0.38190976 -0.6119886 -0.89129585 -0.6191343
-0.81886923 -0.8564207 -0.35630628 -0.57898545 -0.5028525 0.26488006 -2.751984 -0.2260057
0.65333134 -1.153244 -0.100844465 -1.6768246 -2.248003 0.13290507 -0.3573769 -0.9219061
-0.70363414 -0.7329733 -0.43722123 -0.3417739 -0.4282997 -0.87347114 -0.69882077 -0.45094764
-0.6715813 -0.80257237 -0.4674277 -0.795848 -0.27118173 -0.77426744 -0.80415964 -0.7295121
-0.5316114 -0.86483824 -0.5505838 -0.6528167 -0.7900103 -0.33693677 -0.6053869 -0.59076405
-0.8770682 0.6351922 -0.86094755 -0.74306256 0.49712947 -0.6196845 -0.7817548 0.7193985
-0.6005007 -0.54345566 -0.3904048 -0.3901529 -0.46256444 -0.76413405 -0.6051969 -0.6510144
-0.89641494 -0.4775215 -0.9228586 -0.37826902 -0.8551651 -0.39471075 -0.8715249 -0.62056035
-0.7703282 -0.59702307 -0.65805066 -0.6344362 0.42547733 0.62722105 0.7959698 0.6759121

layer1.0.bias f4 [128]
00000000: c070 e6be ae4a e53e 26e9 873e 2fd8 163e
00000010: 9204 70be d979 ac3e 5a9f 0ebe 08d7 41bf
00000020: 4982 e9bd 3157 09bd bffd a93d c940 8c3e
00000030: 3737 07bf 913f 36be 40b1 09be 426e 993e
00000040: e115 cc3d 01b7 85be 4162 3b3e 0abc fc3d
00000050: e636 b63e 9c0a 81be 84a3 f33e 8ec2 7ebd
00000060: 5fd8 6b3b 5c18 c43d feb0 a43e 4cd9 3b3e
00000070: 3645 afbe 0faf 4cbc 5250 873e df68 91be
00000080: e9b6 913e c3cd 2a3e 0205 6b3e 2ae0 c93e
00000090: 7778 413d 6b15 823e 3c57 893d b54c 85bd
000000a0: 2270 a53e f96f 883b 0a56 ccbe f9ab 80be
000000b0: fa39 943e 3a4e 06bf 3f0e 363c 541d f9bd
000000c0: 7bcd 273d 051a dcbe 0ab8 123c d15a 79bd
000000d0: 89b1 e73e c8c1 e6be 103b d23c fb46 6d3d
000000e0: f88e c5be bfb7 45be f546 963e a1ce 843e
000000f0: 390c 533e a5e6 0cbe 6f9f 8fbd 5000 6d3b
00000100: e264 d0bd d300 ea3d cad5 1e3e fa78 fd3e
00000110: 834b eebe cc41 f03d 164c d8be a011 8dbd
00000120: 4644 673e cc29 a33e 2e5b a53d 0644 803e
00000130: e0cf 8c3e c962 303d a08b 98bd 2abf 03bc
00000140: 73e3 cf3e 97dc 9dbe 0923 0e3e 7f99 603f
00000150: 200f 1f3b 64f0 e0bd 7c26 9f3e e32a 12bf
00000160: e3a7 9d3e 4ab3 bc3e 65f8 e43d c3f0 ffbe
00000170: d0ef 35be 56f3 c63e f8bc 7c3e a57b a73e
00000180: a9f0 26be 0049 ce3e d55b a93e fad4 f8be
00000190: e6de 43be 97e6 36bf 1bfb 703e 08e1 3d3d
000001a0: aaa9 2dbe 0067 36be e937 003e 898b 36be
000001b0: 9b93 bbbe 2957 b13e 3501 cbbe 36cb 2fbe
000001c0: b56c 103e 34eb ca3e 3150 83bd 4f0a 793e
000001d0: 1386 d7bd 17ed 1f3e cdbc 71be 1868 a6be
000001e0: cda7 ccbd a52d 4abd a999 51be 0a15 14be
000001f0: b5e8 16bd 839c a83d 0b9e 8e3e f922 a9be
-0.45007896 0.4478354 0.26545066 0.14730905 -0.23439243 0.33686712 -0.13927975 -0.75718737
-0.11401803 -0.033530418 0.08300351 0.27393177 -0.52818626 -0.17797686 -0.13446522 0.29966933
0.099651106 -0.26116183 0.182992 0.12340553 0.3558876 -0.25203407 0.4758569 -0.06219726
0.0035987122 0.09574959 0.32166284 0.18344611 -0.3423249 -0.012492909 0.26428467 -0.28400323
0.28459862 0.16680054 0.22951129 0.39428836 0.047234025 0.25406966 0.06706092 -0.06508771
0.32312113 0.004163739 -0.39909393 -0.25131205 0.28950483 -0.52463114 0.011111795 -0.12163797
0.040967446 -0.429886 0.008955011 -0.060877625 0.45252636 -0.45069718 0.025662929 0.05792902
-0.3858564 -0.19308375 0.2935101 0.25938895 0.20610131 -0.13759859 -0.070128314 0.0036163516
-0.10175492 0.114259385 0.15511242 0.4950636 -0.46541986 0.117313 -0.4224555 -0.06888127
0.22584638 0.31867826 0.08074032 0.25051898 0.27502346 0.04306296 -0.07448506 -0.0080411825
0.40603217 -0.3083236 0.13880552 0.87734216 0.002427049 -0.10983351 0.3108405 -0.5709669
0.3079215 0.36855537 0.1118019 -0.49988374 -0.17767262 0.38857526 0.24681461 0.3271152
-0.16302742 0.4029007 0.33077875 -0.48599988 -0.19127998 -0.714456 0.23533289 0.046357185
-0.16959253 -0.17812729 0.12521328 -0.17826666 -0.36636052 0.3463681 -0.39649358 -0.17167363
0.14103968 0.3963257 -0.0641178 0.24320339 -0.105236195 0.15617786 -0.23607178 -0.32501292
-0.09992943 -0.049359936 -0.20468773 -0.14461151 -0.03684302 0.08232977 0.27854952 -0.33034495

layer1.1.weight f4 [128]
00000000: 8bb6 e33e 5d99 e53f aaa0 713e b27a c63f
00000010: 2e20 393d b7ac c13f 5be7 6440 a36e b53e
00000020: f53b b73f 7948 be3f ef7f b83e ffeb 293f
00000030: e4d1 283d 8c99 ba3f 9cce f93f 5c76 ae3e
00000040: ae8c ca3f 10b7 b93f 660a ce3f ba1a e63e
00000050: 8b80 c53f e181 f43f a51e 033f e25d bb3f
00000060: 2a1b b63f 38f5 353f db54 f83e 8dcc bd3f
00000070: 903f 893d ca98 d23f 94a3 c93f 8990 c43f
00000080: 0fae fa3e a7d5 1b3f e7ac bd3e 8342 f93f
00000090: 778b 1e40 49fe 493e a58d 3f40 c636 ab3d
000000a0: c0f7 063f 1c26 c43e 3165 bd3f 4c6b c73f
000000b0: 891a 013f 6177 c53f d277 a93f aea5 903f
000000c0: c176 733f 8eaa ab3f 759b ab3e c3f9 7040
000000d0: 7234 dd3f 4970 453d 84c8 223f d16b ffbd
000000e0: d25e d23e b641 ce3f 5346 c13f 093d 423d
000000f0: 0f6d 4f40 54ef 9e3f ce6f 143d dcd8 2c3d
00000100: a74c 803f a466 5f40 cd0d df3f 396b 7d3f
00000110: 4617 963f 26cc 1c40 2125 223e f044 893f
00000120: 3949 8040 62f1 e43e 8d41 b93f 08df 123f
00000130: c807 493e f79d 5b3f 5bcf b93f c366 17be
00000140: 6e5f d73e b231 1d3e 9d3d da3f eca3 e23e
00000150: d015 1c3f b95d 0840 5565 d73f 3d54 eb3e
00000160: 410d 1e3d 9ea2 473e f3a6 c73e 98d8 0d3d
00000170: 59a6 ff3f 15fa b83e 76a9 0d3f 78b1 a5be
00000180: 0e6b e53f ca7f 9a3f 2149 e53f 265b 2d3d
00000190: 0338 a73f ebd4 c73f 52ad 5a3e c728 273d
000001a0: a133 ca3e e487 3d3f 8c1e f43b 3c49 df3f
000001b0: 1881 323d 71b4 c23f 2167 bb3e 5952 b03d
000001c0: 14cc 203d b72d 2840 ab1b 463e 7399 193d
000001d0: c69b 0040 e52d d23c 6271 c63f b166 313d
000001e0: 1e8d 773f 5e0e 983f 5471 1cbd b70c be3f
000001f0: cb68 163f 6acd 943f 7264 143d 4d4e c03f
0.44475207 1.7937428 0.23596445 1.5506194 0.045196705 1.5130833 3.5766208 0.35435972
1.4315172 1.4865867 0.36035106 0.66375726 0.041215792 1.4578109 1.9516177 0.34074676
1.5824182 1.4508991 1.6096923 0.44942266 1.5429853 1.9102136 0.51218635 1.4638026
1.422704 0.710773 0.4850224 1.4828049 0.06701577 1.6452878 1.5753045 1.5356609
0.4896092 0.6087288 0.37045977 1.9473423 2.4772623 0.19725908 2.9930203 0.083600566
0.52721786 0.38310325 1.4796506 1.557962 0.50431114 1.5427057 1.3239691 1.1300561
0.9510308 1.3411424 0.33517042 3.7652442 1.728163 0.048202787 0.6358721 -0.12471736
0.41087967 1.6113803 1.5099586 0.04742149 3.2410314 1.2416787 0.036239438 0.042199
1.0023392 3.4906397 1.7426087 0.98991734 1.1725852 2.4499602 0.15834476 1.0724163
4.0089383 0.4471541 1.447313 0.5737157 0.19631875 0.8578791 1.4516405 -0.14785294
0.42064995 0.15350989 1.7050053 0.44265687 0.60970783 2.1307204 1.6827799 0.45962706
0.03858686 0.19495627 0.3899456 0.034630388 1.997264 0.36128297 0.553367 -0.3236196
1.7923295 1.2070248 1.7912942 0.042323254 1.3063968 1.5611852 0.21355179 0.040810373
0.39492515 0.7403548 0.0074499305 1.7444224 0.043580145 1.5211316 0.3660212 0.086094566
0.039257124 2.6277902 0.19346492 0.037499856 2.0095077 0.02565665 1.5503352 0.043310825
0.966997 1.1879385 -0.038194016 1.484763 0.5875365 1.1625187 0.036228605 1.5023896

layer1.1.bias f4 [128]
00000000: 3969 1fbf 6f03 f33e 7c8d 0a3f b3d2 f73e
00000010: e046 1ebf 3396 ef3e f276 47bf a1a8 09bf
00000020: fa7d 123f 9048 2f3f 409d 15bf e955 89bf
00000030: 18d4 1ebf a68c ca3e 7cca 253f df2d b73d
00000040: 812c 333e a220 9e3e 0dfb 053f dcdb 3cbf
00000050: cb78 563e 3040 9f3e 2728 04bf 519e 0d3e
00000060: 9b85 4d3e 34ab c73f 7df8 e3be 84a5 9e3c
00000070: 8dae 303f 8de0 093f 658c 073f f3e1 b43e
00000080: 3624 78bf e941 6e3f 6639 15bf e6de 613e
00000090: 0f1a 0c3f c905 65bf 56d1 2ebf bc26 5bbf
000000a0: b7aa 32bf 84f8 17bf 9b53 c1bf 8439 f23e
000000b0: 8c60 3dbf c421 f63e 1d58 383f 22c1 2d3f
000000c0: 3e90 853f c5a9 5d3f 59b1 09bf 222a 6bbe
000000d0: 2663 abbf 8c80 26bf b79b 583f 772f 86bf
000000e0: 6045 2ebf 8ae3 f83e e38a c1bf fcf0 34bf
000000f0: 61a7 ae3e aa2d 66be 7c4c 21bf 7dd3 22bf
00000100: 871a 31bf 16f6 cc3e 7713 453f 73d8 f93e
00000110: 7d0b a73c e8b2 b5be ee12 4d3f b2c0 d6bf
00000120: 1920 11bf 1a10 43bf 5db8 5f3e 6cc5 87bf
00000130: 7ad0 d9be 6269 c3bf f4d9 943e c9f1 4ebf
00000140: 02e5 613f f352 173f 4851 d7bf 1878 2cbf
00000150: f409 463f 8c03 5abe b6a6 34be 98a1 2dbf
00000160: 1ffd 19bf bea6 18bf 90c6 a43e dbbc 0fbf
00000170: 6f6a 96bd add3 13bf 7c86 d63d 9ac3 0fbf
00000180: 5efb 803e 365c 343f a2c4 9bbe a185 2ebf
00000190: 8e26 5e3e 9f5c f33e 2dbe 80be 347a 25bf
000001a0: 3207 abbf 0fd2 32bf 8577 3fbf e545 1dbc
000001b0: e405 27bf 4304 e43e 31e1 14bf 989a 20bf
000001c0: f78a 23bf ac1a 9dbe e90f 17bf 1c4a 2cbf
000001d0: f7f3 213f a1a9 dcbe d25d ce3e 38ca 22bf
000001e0: 8af5 9dbd 9842 843e 8180 33bf ea09 9d3e
000001f0: cded 2ebf f540 f0bf 2bd8 12bf 1038 2d3f
-0.6226993 0.47463557 0.5412214 0.48402938 -0.61826897 0.4679428 -0.7791587 -0.5377293
0.57223475 0.68470097 -0.5844307 -1.0729343 -0.6204238 0.3956043 0.6476209 0.08944296
0.17497446 0.30884272 0.523362 -0.7377298 0.20944516 0.3110366 -0.5162377 0.13829924
0.20070498 1.5599122 -0.4452552 0.019366033 0.69016343 0.5385826 0.529486 0.35328636
-0.96930254 0.9306932 -0.5829071 0.22057685 0.5472726 -0.8946195 -0.6828817 -0.8560598
-0.6979174 -0.5936358 -1.5103639 0.47309506 -0.73975444 0.48072636 0.7200945 0.6787282
1.0434644 0.8658717 -0.53786236 -0.22965291 -1.3389633 -0.65039897 0.846126 -1.0483235
-0.6807461 0.486111 -1.512051 -0.7068021 0.34112075 -0.22478357 -0.6300733 -0.63603956
-0.691811 0.400315 0.76982826 0.4879795 0.02039122 -0.35488057 0.8010701 -1.6777556
-0.566896 -0.76196444 0.21847673 -1.0607123 -0.42541867 -1.5266535 0.29072535 -0.80837685
0.88240063 0.59110945 -1.682168 -0.6737075 0.7735894 -0.21290416 -0.1764172 -0.678247
-0.6015186 -0.5962943 0.3218274 -0.56147546 -0.07344519 -0.57744867 0.104748696 -0.5615784
0.25191778 0.704532 -0.30423456 -0.6817265 0.21694395 0.47531602 -0.25145093 -0.6463959
-1.3361571 -0.69851774 -0.7479175 -0.009599184 -0.65243363 0.445345 -0.58156115 -0.6273589
-0.6388392 -0.30684412 -0.5900865 -0.6730058 0.63262886 -0.43098167 0.40305954 -0.6358981
-0.077128485 0.25832057 -0.70117956 0.30671626 -0.68331605 -1.8769823 -0.57361096 0.6766367

layer1.1.running_mean f4 [128]
00000000: 2b98 dabf 6bc8 36bf cf22 cb3f d7df 88be
00000010: 1b65 cfbf 8a20 75bf d5af 873d 4379 c3bf
00000020: 2efd 3e3f e86a d33e 162d 3bbf 1a7e 75bf
00000030: 11f8 283f c95a dbbe 47f8 9dbf 51cf cd3f
00000040: 7217 acbf f773 853f 7e22 f7bc 4ba7 5dbf
00000050: 57dd 73bf 1b43 f5bf 83bb 4dbf 76d2 b3bf
00000060: ee68 acbf c036 e0be e708 79bf a9c1 94bf
00000070: 3165 7b3f 1fac cdbe 3bad 85bf 423f cfbf
00000080: 9a6b 833f 6a7d bb3f ff1a 15bf d42d 44bf
00000090: e3ea c1bf 918e e0bd f738 c73e a6ad 17bf
000000a0: 64d8 6cbe 9286 5ebf 47d7 dcbf dad8 e2bf
000000b0: cd74 d3be 2c28 f2bf 87af 1f3f 66d5 8a3e
000000c0: f086 883e 969e 733d 4fac 21bf 0485 64bf
000000d0: 0695 4f3e 7e0f 333f f8e2 8d3f 9d09 763f
000000e0: d388 cebf 9b52 2ebf 8f97 8abf 8f9b be3f
000000f0: 2d9f 9dbe 663a b4bf b7d5 983f dfb3 7a3f
00000100: 5e00 4f3f 0a99 75bf b794 81bf db2f e13f
00000110: 610a 183f a4d7 07bf a131 7f3e 045e aa3f
00000120: c0a8 e23e 5e05 b23f 87d3 9dbf 418d a93f
00000130: acea c43f 33e5 a23e 77e6 273f 8deb 133f
00000140: 789e 22bf a95f 7e3f 7a8c f3be 117f b7be
00000150: 491d c03e 959d aebf 88c6 5ebf eb76 c8bf
00000160: 8501 b63f bb84 e93f 7d92 9dbe 0a6b 403f
00000170: 4f12 93bf 873f 70bf 223d 22bf 5f0d cd3f
00000180: a804 99bf 9502 a63f 51b7 66bf 9a39 803f
00000190: b4a4 8a3f fc1a cdbf 40b3 c13f 8188 943f
000001a0: ff0d 703f 3796 873f 8383 38be 14d8 a7bf
000001b0: 968d 523f 1552 72bf 9e9b 85bf a5a8 bdbf
000001c0: ec5a a03f 2d9d 05bf 7cbe ac3f 7e41 c63f
000001d0: ce18 d1bf d93d b43f a41c d5bf eed1 153f
000001e0: ff1b 953f c2be 5f3f 6631 84bf fa22 bbbf
000001f0: 0df0 643f c726 8c3f 0ed6 bc3f bf7e cfbf
-1.7077688 -0.71399564 1.5869998 -0.26733276 -1.620273 -0.95752776 0.06625334 -1.5271381
0.7460507 0.412925 -0.7311567 -0.9589554 0.6600352 -0.428427 -1.2341393 1.6078893
-1.3444655 1.0426015 -0.030167814 -0.86583394 -0.9525961 -1.9161104 -0.80364245 -1.4048603
-1.3469522 -0.4379177 -0.9727921 -1.16216 0.9820128 -0.4017038 -1.0443491 -1.619118
1.0267212 1.4647648 -0.5824432 -0.7663243 -1.5149807 -0.109646924 0.38910648 -0.5924934
-0.23129421 -0.8692409 -1.7253197 -1.7722428 -0.4130005 -1.891851 0.6237721 0.27115935
0.2666545 0.05947741 -0.6315355 -0.89265466 0.20271692 0.69945514 1.108489 0.9610842
-1.6135505 -0.68094796 -1.0827502 1.4891223 -0.30785504 -1.4080322 1.194022 0.9793071
0.80859935 -0.95936644 -1.0123509 1.7592729 0.59390837 -0.53063416 0.24921276 1.3309941
0.4426937 1.3907888 -1.2330178 1.3246232 1.5384116 0.3181549 0.65586036 0.57781297
-0.63523054 0.99364716 -0.47568113 -0.3583913 0.37522343 -1.364184 -0.87021685 -1.5661291
1.4219214 1.8243631 -0.30775824 0.7516333 -1.1489962 -0.93846935 -0.6337453 1.6019706
-1.1954546 1.2969538 -0.9012347 1.0017579 1.0831513 -1.602386 1.5132828 1.1604158
0.93771356 1.0592717 -0.18018918 -1.3112817 0.82247293 -0.946565 -1.0438116 -1.4817091
1.2527747 -0.52192956 1.3495631 1.5488737 -1.6335695 1.4081374 -1.6649365 0.5852345
1.1649169 0.8740045 -1.0327575 -1.4620049 0.8942879 1.0949334 1.4752824 -1.6210555

layer1.1.running_var f4 [128]
00000000: c664 953f b6d7 7e3f 1af6 a43f f6f9 243e
00000010: b40e b53f 2f9a 9e3f b25c ba3d e19e e23e
00000020: 3abe 213f 6a03 493e 396b fb3e 8650 8f3f
00000030: 1f5f 853f 81c5 9e3d 1d26 653f 60a6 a13f
00000040: 6ad5 cb3f 7b59 a03f 6776 6e3d ea45 3b3f
00000050: 12cf a13f f00e 0540 7484 9a3f 4e2a aa3f
00000060: 1917 ac3f f6a1 703e aa16 9e3f b614 ab3f
00000070: 804d a53f 2bef 183e 41b0 a13f 934b a83f
00000080: 0c2a d33e a9fc 9e3f 18a8 ff3e daa0 7e3f
00000090: 9fde e73f 69e2 e63d 9a3e eb3d 2e21 5d3e
000000a0: 3197 7f3e a442 133f 7fb0 a53f f170 da3f
000000b0: 2528 bb3e 6029 b03f d011 9f3e feae 283e
000000c0: da03 8b3d 4024 853e 7f75 a03e d28f 063f
000000d0: b550 b03d 4f69 793f 25c1 5e3f c19b 1c3f
000000e0: 072c 8e3f 411f 503e 08c9 b23f 4598 8e3f
000000f0: f24f 543e d15a 983f b324 983f 70e4 333f
00000100: 2fd2 233f daba 633f 04ec 803f 24ab 963f
00000110: 5e01 563f 6455 a63e 6f04 ac3e 61f9 b83f
00000120: 0dcf 033e 0f67 5f3f ade6 a23f f7c6 5a3f
00000130: 138b 963f 159f 993d 9c3d d53e 9cec 893e
00000140: 146c 533f a7b7 9f3f 6f2f 8f3e ce34 903f
00000150: f9d6 093e 6944 943f f0e4 833f 2e96 3c3f
00000160: fd92 6a3f ac9a c83f 12ba 163e 62b7 933f
00000170: 7aee 343f ff63 a63f 6c33 133f 4dee 993f
00000180: e35a 4b3f 843a 173f 8d29 8f3f fa28 d13f
00000190: 5474 993f beab 153f 3f61 9a3f 7339 6c3f
000001a0: 86a3 683f 977f 903f 415a 993d e11e 723f
000001b0: a71d 853f 78f4 9d3f 4797 a43e 98dc a13f
000001c0: 38e6 693f abf9 233f 6381 bc3f 61ce a23f
000001d0: ef87 e33f 09e5 933f f3e6 c03f cd5e 1c3f
000001e0: 3404 973f cd6c 253f cecc 023f bbc5 a33f
000001f0: 5045 293f 1c60 433f 8a3f 873f 0331 9d3f
1.1671379 0.995479 1.2887604 0.16110978 1.4145112 1.2390803 0.090997115 0.4426184
0.6318089 0.19630209 0.49105242 1.1196449 1.0419654 0.07752515 0.8951128 1.2628899
1.5924504 1.2527307 0.058218386 0.73153555 1.2641318 2.0790367 1.2071671 1.329416
1.3444549 0.23499283 1.2350667 1.3365695 1.2914276 0.14934985 1.2631913 1.3148063
0.41243017 1.2420856 0.49932933 0.9946419 1.8114814 0.11273653 0.1148655 0.21594688
0.24960019 0.5752356 1.2944487 1.7065717 0.36554065 1.3762627 0.31068277 0.16473004
0.06787844 0.2600422 0.31339642 0.525632 0.08609144 0.97426313 0.87013465 0.6117516
1.1107186 0.20324422 1.39676 1.1140219 0.20733622 1.1902715 1.18862 0.7027044
0.6399259 0.8895699 1.0072026 1.1770978 0.83595836 0.32487023 0.33597133 1.4451104
0.12871952 0.8726663 1.2726647 0.85459846 1.1761192 0.075010456 0.41648567 0.2693833
0.8258679 1.2477921 0.27965876 1.1266115 0.13460912 1.1583377 1.0304241 0.73666656
0.91630536 1.5672202 0.14719418 1.1540339 0.70676386 1.2999266 0.5750034 1.2025849
0.7943556 0.5907366 1.1184555 1.634063 1.1988626 0.5846518 1.2060927 0.9227516
0.90874517 1.1288937 0.07487918 0.9457837 1.0399674 1.2340231 0.32146665 1.2645445
0.9136691 0.6405284 1.4726986 1.2719232 1.7775859 1.1554271 1.507048 0.61082155
1.1798158 0.6461914 0.5109376 1.2794718 0.6612139 0.76318526 1.0566266 1.2280582

layer2.0.weight f4 [64, 128, 3, 3]
00000000: 7cb4 1bbf ddce 113f 2b92 1d3f c2e3 19bf
00000010: e1f8 21bf 343f 143f f2bf 13bf 50bf 13bf
00000020: 6e83 1d3f 2809 1bbf 9877 18bf 8af6 1dbf
00000030: 9929 17bf 4227 1ebf 0910 1fbf 1296 1fbf
00000040: 5de0 15bf d9ff 16bf 6290 143f fe15 1a3f
00000050: 129d 1c3f 7dd2 173f 93b9 193f ddae 163f
00000060: d73f 143f 151b 193f 50a4 1e3f c6b8 123f
00000070: 8e82 183f 91a4 143f 7e77 1a3f 57dc 133f
00000080: 7e42 143f 2608 1f3f 81e3 1d3f b174 193f
00000090: 375d 133f db07 1b3f fec4 1d3f e19a 1c3f
000000a0: ef80 193f 0c40 173f 6d12 1e3f f622 203f
000000b0: fdfd 153f e4d9 133f d2b4 1c3f 4843 143f
000000c0: 0100 1c3f 5817 153f d218 213f b959 1f3f
000000d0: 3b88 1f3f c550 1c3f c423 153f be27 0f3f
000000e0: b438 103f d794 133f aa18 123f e8f5 0e3f
000000f0: ad6f 1e3f 67a7 163f 5949 193f 2761 163f
00000100: 8834 123f 4532 133f 50d8 1c3f 194c 1d3f
00000110: 1621 123f 5143 1f3f 0ea7 1d3f 7728 163f
00000120: d7a3 1cbf fa4e 20bf 9c75 23bf 3e5d 1ebf
00000130: 8f8b 20bf 3018 1dbf 2f44 1ebf 4184 15bf
00000140: 81c3 1ebf b084 1abf 690a 1fbf 3ee4 1ebf
00000150: a44c 15bf 2feb 23bf 29f4 1bbf c5f8 20bf
00000160: b571 17bf 34c1 1dbf 3d2e 153f 1150 193f
00000170: d860 143f 3a11 1e3f 559b 153f 7f79 173f
00000180: 131f 193f 7a28 133f 3647 163f 804c 18bf
00000190: 0229 163f 0f0b 173f 1aac 14bf 1995 18bf
000001a0: 3a76 1bbf 84b2 1abf 1ce1 13bf d23a 1dbf
000001b0: 9fe4 113f 8769 133f 5608 173f f58e 1e3f
000001c0: a4bf 193f 62d6 103f eac1 173f 62c5 1e3f
000001d0: 9173 1d3f 7717 123f 38d4 123f 030b 203f
000001e0: 47b4 183f da4c 133f 64ef 1b3f 6230 203f
000001f0: 036b 1c3f fb68 123f 8e68 21bf 9b07 21bf
00000200: dce5 20bf 6d6d 12bf e4a7 17bf 5502 20bf
00000210: 29e8 1ebf 03a8 20bf 9f39 1ebf f3eb 193f
00000220: 1289 133f 4a99 1e3f 6e4e 163f 61b7 193f
00000230: 97f1 183f 7672 183f dd44 1a3f 03dd 133f
00000240: a82a 1b3f 97a2 153f d3e2 1d3f d0d3 123f
00000250: 1d6c 183f c67c 183f 58cb 123f 6adb 133f
00000260: b7e8 1a3f 4f96 2bbf 3f44 4bbf 4225 40bf
00000270: d8ae 78bf b841 26bf 5a86 113f 4161 fd3e
00000280: 8e39 143f d3d6 33bf 7863 183f 1d5f 173f
00000290: c2fd 133f 6cb1 123f 0e9b 123f a105 143f
000002a0: 9860 193f fbc5 1c3f fd36 1e3f c67d 1dbf
000002b0: d2c0 1fbf 4b38 18bf afff 16bf 4f1d 1fbf
000002c0: 3d1d 1bbf 0224 14bf 2518 15bf 6cba 13bf
000002d0: f797 153f 528b 153f d83a 153f 17ac 163f
000002e0: 81a6 143f 12df 183f 2634 133f c87d 173f
000002f0: f317 1e3f fb83 153f 9e73 183f e41a 1f3f
00000300: 52e3 203f 282b 1f3f 0b49 173f aba8 123f
00000310: c2fa 113f 2b5a 183f 2302 153f d348 133f
00000320: 245f 203f cac2 1a3f 3ae7 1f3f 0742 163f
00000330: d37a 1b3f d310 123f cd7c 143f 8990 1d3f
00000340: f733 133f 8ea0 153f 07f4 1a3f c84a 1d3f
00000350: 17c2 173f d74a 123f 458b 123f 787d 1c3f
00000360: 6c4e 173f 57d3 143f 4720 143f 2524 1f3f
00000370: b728 153f 814f 153f 2067 1f3f 5ea9 203f
00000380: 6f47 143f 4b8c 1cbf 97ca 19bf d633 1fbf
00000390: 3657 15bf 2812 1dbf b5ba 1dbf e41e 16bf
000003a0: 155f 17bf 01e3 12bf b852 133f 9e83 1f3f
000003b0: 2022 173f b855 183f 7010 213f c362 163f
000003c0: 3b88 123f a0e9 1d3f ea71 153f fd75 153f
000003d0: cb6a 1f3f 7221 123f a71a 183f e4c4 193f
000003e0: 1ae1 143f fff9 1b3f 910a 183f 6be9 143f
000003f0: 2ff6 1abf 4172 22bf 5d3d 1a3f cb0c 20bf
-0.6082227 0.56956273 0.6155116 -0.60113156 -0.63270384 0.5790894 -0.5771476 -0.57713795
0.6152867 -0.60560846 -0.59557486 -0.61704314 -0.5904785 -0.6177865 -0.6213384 -0.62338364
-0.58545476 -0.5898414 0.5803281 0.6018981 0.6117717 0.59305555 0.6004879 0.5886057
0.5790991 0.5980695 0.6196947 0.5731319 0.5957421 0.5806361 0.6033858 0.57758087
0.5791396 0.6212181 0.6167527 0.5994368 0.5756411 0.6055886 0.6162871 0.61173826
0.5996236 0.590821 0.61746866 0.62553346 0.5859068 0.5775435 0.6121341 0.57915163
0.60937506 0.58238745 0.629285 0.6224628 0.62317246 0.61060745 0.582577 0.55920017
0.5633652 0.57648987 0.57068884 0.55843973 0.61889154 0.58849186 0.59877545 0.5874199
0.57111406 0.5749858 0.61267567 0.6144424 0.57081735 0.6221209 0.6158303 0.58655494
-0.611875 -0.6262051 -0.6385133 -0.61861026 -0.6271295 -0.6136503 -0.6182279 -0.5840493
-0.62017065 -0.60358715 -0.6212526 -0.6206702 -0.5832007 -0.64030737 -0.60919434 -0.6287959
-0.5915788 -0.6162293 0.5827368 0.59887797 0.5796027 0.61745036 0.5844014 0.59169763
0.5981304 0.5748364 0.5870241 -0.5949173 0.5865632 0.5900125 -0.58075106 -0.59602505
-0.60727274 -0.60428643 -0.57765365 -0.6141788 0.56989473 0.57582897 0.58997095 0.61936885
0.60058045 0.5657712 0.59280264 0.6201993 0.61504465 0.57067055 0.5735507 0.625168
0.5965008 0.5753914 0.60912156 0.62573826 0.61100787 0.5719144 -0.6305016 -0.6290223
-0.6285074 -0.5719822 -0.59240556 -0.6250356 -0.62073 -0.62756366 -0.6180667 0.60125655
0.5763103 0.6195265 0.58713424 0.6004544 0.59743637 0.59549654 0.6026133 0.5775911
0.60611963 0.5845122 0.6167423 0.5735445 0.5953997 0.5956539 0.5734153 0.57756674
0.60511345 -0.6702623 -0.7940101 -0.7505685 -0.9714179 -0.6494403 0.5684563 0.4948826
0.5790032 -0.7024967 0.5952678 0.59129506 0.5780908 0.57301974 0.57267845 0.5782109
0.59913015 0.61239594 0.61802655 -0.6152004 -0.62403595 -0.59460896 -0.5898389 -0.62154096
-0.6059149 -0.57867444 -0.58239967 -0.5770633 0.58435005 0.5841571 0.58292913 0.5885634
0.58066565 0.5971538 0.5750145 0.591763 0.61755294 0.5840451 0.5955142 0.62150407
0.62846863 0.62175226 0.5909583 0.57288617 0.5702325 0.59512585 0.58206385 0.57532996
0.62645173 0.60453475 0.624622 0.586945 0.6073429 0.5705692 0.5800293 0.6154867
0.5750117 0.5844811 0.60528606 0.6144223 0.5928053 0.57145447 0.5724376 0.6112895
0.5910404 0.5813498 0.5786175 0.6216453 0.5826525 0.5832444 0.6226673 0.62758434
0.579215 -0.6115157 -0.6007475 -0.6218847 -0.583362 -0.6135583 -0.6161302 -0.58640885
-0.5912946 -0.5737763 0.57548094 0.62310207 0.59036446 0.59505796 0.62915707 0.5874445
0.5723912 0.6168461 0.58376944 0.5838316 0.6227233 0.57082283 0.5941567 0.60066056
0.5815598 0.6092834 0.59391123 0.5816867 -0.60531896 -0.6345559 0.6024988 -0.6251952

layer2.0.bias f4 [64]
00000000: 3fad 9fbd 06a7 93bc 458c b93c cb4e 243d
00000010: 7652 363e 4962 7abd 482e a8bc 1384 cd3d
00000020: f487 1d3e f887 d53d 17bd ebbd d5fb abbb
00000030: 36ad 42bd 078e c83b bc6b 75bd 1312 0e3e
00000040: ab1a 8e3c fdb1 6d3d 1d0a 86bc 588e 1e3d
00000050: 8a1e d7bb ba01 87be 4f29 933e cea2 b13d
00000060: 81de 2f3d a844 483d b945 c1bd 95aa e83c
00000070: 8965 483e 1add 91bd d38b 023e 9719 0dbc
00000080: 79bc 9cbc 5727 68bd fbc1 323d f47f d3bc
00000090: 9ed5 503e 1a51 f2bc 3321 743d 47c2 2e3e
000000a0: bfd6 313d c1f7 03bd 5100 92be b718 c83d
000000b0: a395 933d 61d4 f5bd 1f42 d9bb 720b 193d
000000c0: f959 823d 1baf 783d 2500 8ebd ff35 e5bc
000000d0: beff 503d 3ddd dfbd f034 bf3d b7f2 983c
000000e0: 2076 1cba c799 8f3d 37bb 38bc 66f2 203e
000000f0: c69e b13b d2ed 03bd f3d7 02be 20ff 7fbd
-0.07796716 -0.018023979 0.022649894 0.040114205 0.17804894 -0.06112889 -0.020529881 0.10034957
0.15383893 0.104263246 -0.115106754 -0.0052485266 -0.047528468 0.0061204466 -0.059917197 0.13874082
0.0173467 0.05803107 -0.016362244 0.03870997 -0.00656492 -0.26368505 0.28742453 0.08673631
0.042936806 0.0488936 -0.09437127 0.028401652 0.19569983 -0.0712225 0.12748651 -0.008612058
-0.01913284 -0.056678142 0.043642025 -0.025817849 0.20393988 -0.029579688 0.059601974 0.17066298
0.04341769 -0.0322187 -0.28515866 0.09770339 0.07206275 -0.12003399 -0.0066301967 0.03736443
0.06364817 0.06071387 -0.06933621 -0.027979849 0.051025145 -0.1093087 0.09336269 0.018670423
-0.000596853 0.070117526 -0.011275104 0.15717468 0.0054205386 -0.032209225 -0.1277769 -0.062499166

layer2.1.weight f4 [64]
00000000: d916 db3f a064 763f 57e9 4a3f d1a5 323f
00000010: 525a f43d 721f 8b3f 7fb5 2c40 2ad8 bb3f
00000020: 6d81 483f 768d a03f 3b76 183f 56e8 5cbe
00000030: 59af 0840 55c5 fd3e 2ade bbbc 9a0f 0a3f
00000040: 4f0c b540 1954 ff3e 049b 4d3d 4899 bc3f
00000050: b004 0140 4896 903f 382d 0b3f ab71 333f
00000060: ef44 493f cab2 573f 6a63 443f 4957 2d3f
00000070: abf4 c73e 903d 413d db5a 1a3f db02 cf3f
00000080: ee38 fb3f 7ee1 9e3f 2a0a 313f c964 453f
00000090: c021 323f 4255 c33f 4113 543f 58ba 113f
000000a0: f324 863f d3b4 a9be 9711 b4bb 7499 bd3f
000000b0: e862 ea3e 7c18 7f3f 88be da3f 59e5 38bd
000000c0: 040b b4be 893d 733f 67a6 a83f 092f 1f3d
000000d0: 5fa0 0f40 1819 913f a8ad b33f 37f7 a93f
000000e0: 48b4 c63d 0b4f ea3d 7fda 023f 27ce e1bd
000000f0: 9633 2e3f 57bb c4be f793 043f 92c4 fb3f
1.7116348 0.9624729 0.792623 0.69784266 0.1193129 1.0868971 2.6985776 1.4675343
0.7832249 1.254317 0.59555405 -0.21573004 2.1357024 0.49564615 -0.022933085 0.53930056
5.6577525 0.4986885 0.050196663 1.4734278 2.015911 1.1295862 0.54365873 0.7009532
0.7862081 0.84257185 0.76714194 0.6771131 0.39053854 0.04717785 0.60294884 1.6172746
1.9626749 1.2412565 0.69156134 0.7710691 0.6958275 1.5260394 0.8284188 0.56924963
1.0480026 -0.3314577 -0.005495261 1.4812455 0.45778584 0.99646735 1.7089396 -0.045140598
-0.35164654 0.9501577 1.3175782 0.038863216 2.2441633 1.1335783 1.4037371 1.3278569
0.09702355 0.114408575 0.5111465 -0.110256486 0.68047464 -0.3842418 0.51788276 1.9669363

layer2.1.bias f4 [64]
00000000: 1122 5d3f b790 9a3f d727 f9be 06c8 8d3f
00000010: e598 a6bf 514c a53f 612b 0c40 4671 9bbe
00000020: 7dd2 c5be 2535 a6bf 32ea d73e ddb4 b0bf
00000030: 1651 be3f 5844 343f 1d27 93be 6ad8 54bf
00000040: e009 8f3f 7cc8 d6be a76d bcbf d1c2 fe3f
00000050: d0a6 943f d4b2 97bf c98b 923f d081 033f
00000060: 07cd d23b 5d3b ac3f 95cc e83e c66e 6bbf
00000070: d46a 54bf f6d7 75bf 823b 8b3f e27a 5a3d
00000080: 938c a13e 0be4 47bf e84b 5abe 95f5 3c3f
00000090: 6d99 1a3f f55e 6f3f 2000 a5bf 7538 473f
000000a0: 7ac1 5dbf b048 aebf 9fed a2bf 1b0b d13f
000000b0: 23c5 6ebf a4e9 32bf 2c3d 9fbe 8928 88bf
000000c0: 822b acbf f078 a6bf 7c0a c53d 21b5 93bf
000000d0: fc4b 0f40 293b 14bf 2f6b 8f3f eeb3 eabe
000000e0: 2326 b2bf 521b b6bf 9a5f ca3e b8f7 b3bf
000000f0: e8b6 a73e facc afbf 5748 263e 1d72 c33e
0.86380106 1.2075413 -0.48663208 1.1076667 -1.301541 1.2913915 2.1901476 -0.30359858
-0.38637152 -1.2984968 0.42170864 -1.3805195 1.4868495 0.70416784 -0.2874078 -0.8314272
1.1174889 -0.41949832 -1.4720963 1.9903203 1.1613407 -1.1851449 1.1448909 0.51369953
0.0064331326 1.3455616 0.45468584 -0.919659 -0.82975507 -0.96032655 1.0877535 0.053339846
0.31552562 -0.7808234 -0.21318018 0.7381223 0.6039036 0.9350427 -1.2890663 0.7782052
-0.86623347 -1.3615932 -1.2728766 1.6331514 -0.93269557 -0.6988776 -0.31101358 -1.063737
-1.3450778 -1.3005657 0.0962114 -1.1539651 2.2390127 -0.5790277 1.1204585 -0.458404
-1.3917888 -1.4227087 0.39526063 -1.4059973 0.32756734 -1.3734429 0.16238533 0.38173

layer2.1.running_mean f4 [64]
00000000: 273a 7042 cd49 21c3 fc57 9d43 c580 65c3
00000010: 6a18 e2c2 d522 0bc3 df77 2842 d892 8543
00000020: 7f74 35c3 c493 5842 0fc5 e0c1 4e68 1fc2
00000030: 9c71 1e42 c5d7 a8c1 3d80 1bc3 ec8d 8bc3
00000040: 90d3 6cc2 c6c6 f142 c8f5 c242 1353 5742
00000050: c00e 8241 ddec 1a42 859e a8c1 05d1 86c2
00000060: ca65 23c3 ac74 4bc2 25f8 80c2 b3f4 30c2
00000070: 8fa6 9e43 b0f5 1142 1007 74c3 0a7c ebc2
00000080: 5690 1f42 f1cc 9e43 f184 9843 7162 edc1
00000090: 34de a4c1 2998 b142 ffea 0142 64f8 a1c3
000000a0: fa69 9c43 e727 82c2 149c 57c2 f464 4442
000000b0: da96 c3c1 6a03 17c2 1662 6c42 669f 10c3
000000c0: 3478 66c2 8744 9541 99c7 8443 3237 bb42
000000d0: 5056 7b42 97e7 cb42 eb4d 8ec1 dbb5 8a43
000000e0: 55de 2b42 7cf6 bb41 51a1 a3c3 6906 8642
000000f0: 4832 a0c3 b111 fac1 2ef1 96c3 0b3b 7343
60.05679 -161.28828 314.68738 -229.503 -113.04768 -139.13606 42.11706 267.14722
-181.45506 54.144302 -28.09622 -39.85186 39.610947 -21.105356 -155.50093 -279.10876
-59.206604 120.88823 97.48004 53.831127 16.257202 38.73131 -21.077402 -67.40824
-163.39761 -50.863937 -64.48466 -44.238964 317.30124 36.48993 -244.02759 -117.74226
39.890953 317.6011 305.0386 -29.673067 -20.608498 88.79719 32.47949 -323.94055
312.82794 -65.077934 -53.90242 49.098587 -24.448658 -37.753334 59.095787 -144.62265
-57.617386 18.65846 265.55936 93.6078 62.83429 101.952324 -17.788046 277.42075
42.96712 23.495354 -327.26028 67.01252 -320.39282 -31.258638 -301.88422 243.23064

layer2.1.running_var f4 [64]
00000000: d716 9d45 3ecf 9646 88a5 bb46 411d d146
00000010: 285e d645 5d5d 3c46 4e59 a244 1910 a346
00000020: bc06 9c46 ee13 5c45 0719 ca45 b07d 5145
00000030: 9110 3d44 3dab d645 25f6 0146 a136 6c46
00000040: 03b3 e943 d727 b245 fd1e b244 dd5a bd45
00000050: 15d8 1145 8a18 0344 0e83 e745 35c2 1445
00000060: 7d6a 7746 fa6d 4e45 0506 2045 ba23 3345
00000070: 80b3 bb46 fa9f 9f45 6cba e446 a418 ba44
00000080: 590b 6245 80ae b446 b4f2 c446 9fd8 bb45
00000090: 1267 d145 9d4c 0e46 c7ed b245 492e b546
000000a0: 884e bb46 4593 8845 03a5 5845 3d18 7445
000000b0: 91e4 d045 1f35 3145 ab66 d245 f08a 6745
000000c0: e014 6a45 e064 d945 02f4 c846 adf9 b344
000000d0: 2e7a 1c44 e7b4 bb44 4d99 c945 5bde a046
000000e0: 8d82 6945 a393 bc45 035e b546 bc3a ef44
000000f0: 848e a346 7137 7645 59ce 9d46 e7f9 3646
5026.855 19303.621 24018.766 26766.627 6859.7695 12055.341 1298.7908 20872.049
19971.367 3521.2456 6467.1284 3351.8555 756.25885 6869.405 8317.536 15117.657
467.39853 5700.98 1424.9684 6059.358 2333.5051 524.3834 7408.382 2380.138
15834.622 3302.8735 2560.3762 2866.233 24025.75 5107.997 29277.21 1488.77
3616.7092 23127.25 25209.352 6011.0776 6700.884 9107.153 5725.722 23191.143
23975.266 4370.4087 3466.3132 3905.515 6684.571 2835.32 6732.8335 3704.6836
3745.3047 6956.6094 25722.004 1439.8024 625.90906 1501.6532 6451.1626 20591.178
3736.1594 6034.4546 23215.006 1913.8354 20935.258 3939.465 20199.174 11710.476

layer3.0.weight f4 [1, 64, 3, 3]
00000000: 6ee3 1fbf bcca 18bf 3bf1 20bf 34a0 23bf
00000010: 13c4 1ebf 6ddd 15bf b67f 10bf 0b8f 24bf
00000020: 9183 1dbf abe5 253f 6622 163f 22a2 123f
00000030: de76 143f 0cea 233f 0b56 1d3f 2922 163f
00000040: ba09 173f b5bf 203f 18b0 20bf 908f 24bf
00000050: e05c 1bbf 8aa4 21bf 4653 26bf 6ee3 21bf
00000060: 68a9 1abf 61cb 15bf ea88 26bf cd02 163f
00000070: 10c9 0c3f 982b 1c3f b62f 0c3f 4f6f 103f
00000080: 2297 0a3f a587 1c3f 5925 1f3f 90bf 0c3f
00000090: 875a 15bf 3e5e 0cbf c8c3 19bf 5ab5 11bf
000000a0: 06fd 1cbf bc0e 11bf 1823 1bbf 2a1f 0cbf
000000b0: 7407 18bf 264f 283f 591a 283f 2257 1e3f
000000c0: 8018 3c3f 32a7 2f3f 4bac 323f fee4 203f
000000d0: ee49 253f 33d7 1a3f 21b6 223f a09a 153f
000000e0: 6965 203f 13e4 213f 9254 1c3f 7026 2a3f
000000f0: a2c0 143f 1980 283f 3f50 1c3f 6390 26bf
00000100: 124a 26bf cc74 23bf 7eda 19bf f08f 21bf
00000110: 53fa 1cbf 6176 26bf fec1 16bf 61cf 20bf
00000120: 6101 193f a017 133f 1046 1a3f 3bcf 203f
00000130: 0974 123f 9630 1d3f 05fe 283f 8102 203f
00000140: a71a 163f 806b 10bf a797 1bbf 1475 1abf
00000150: c636 14bf 05f6 19bf e201 1dbf d22e 18bf
00000160: b973 1dbf d613 12bf a9bb 1fbf 4e61 20bf
00000170: d4f6 15bf f2b3 18bf 776c 19bf 5c15 1bbf
00000180: cd6c 15bf 2c14 11bf ec5a 16bf 5971 1fbf
00000190: 9ae3 0cbf 10e5 1fbf 3441 18bf 24b7 19bf
000001a0: 1c4a 0cbf dedd 0cbf fa88 16bf 0273 0dbf
000001b0: cb18 323f 338b 393f 0495 6c3f cd59 2b3f
000001c0: 581b 2e3f 6c55 3e3f 5060 323f 0fec 273f
000001d0: 4b79 413f c399 1fbf 3aca 16bf 8aeb 12bf
000001e0: b101 11bf 0df7 25bf cb8e 22bf a418 11bf
000001f0: d084 12bf 2063 17bf d621 0fbf a3c4 11bf
00000200: 35ec 18bf 7a46 1ebf 3dda 1cbf 69d4 13bf
00000210: 480f 16bf cad3 11bf e23c 15bf dcbb 20bf
00000220: 5c83 1abf ccdc 2fbf 6a96 1fbf dbc5 24bf
00000230: 1e04 23bf 3949 1ebf 9b0c 2fbf 009d 2fbf
00000240: c9ac 37bf 6364 31bf bc70 2fbf 5131 3dbf
00000250: 5003 29bf 6289 2abf d306 29bf 4666 24bf
00000260: d064 20bf cdc5 19bf 70af 16bf fc14 23bf
00000270: 1e12 22bf 633d 24bf f2cd 12bf 5e8a 21bf
00000280: eeb0 13bf 27fe 13bf 1b5a 15bf 9aed 15bf
00000290: 22c8 0fbf 23da 0abf 8801 03bf e681 0ebf
000002a0: de11 14bf 9ab8 15bf 2f6f 18bf 3a29 12bf
000002b0: 0032 1abf 6f21 12bf e565 24bf 2ed1 1dbf
000002c0: a641 1dbf cfe1 1ebf 5278 15bf b025 24bf
000002d0: 6920 333f 13ba 4d3f 74fc 323f 3216 223f
000002e0: eb4d 3c3f daa2 483f a489 2e3f 147d 223f
000002f0: e9eb 373f 4803 1fbf 007d 1abf c753 1fbf
00000300: 91ad 10bf 125a 18bf e97c 1dbf 8c09 0bbf
00000310: 0949 15bf 0ef5 15bf 9309 14bf 21f6 22bf
00000320: b7a2 14bf f176 1abf 5bc8 1abf a3da 1bbf
00000330: 9874 17bf 2662 15bf 468d 11bf aa4d 18bf
00000340: c675 23bf 127a 15bf 7256 25bf 1922 1bbf
00000350: 46fa 14bf efb1 19bf af96 14bf b821 12bf
00000360: 21f8 113f ddb9 223f 4aba 163f 55b6 123f
00000370: 4bfa 113f 8cda 1a3f a080 223f 4ab0 143f
00000380: ab4c 103f e071 16bf a75d 14bf 41ed 19bf
00000390: d824 1cbf 8c64 28bf d34e 22bf 7259 13bf
000003a0: 276c 1abf c404 25bf ebf8 16bf 9418 15bf
000003b0: a82a 15bf c366 17bf 9190 1bbf 194e 20bf
000003c0: 5a31 22bf 5223 17bf 2d63 1cbf 5fa6 163f
000003d0: decd 193f 84ee 123f 4c5f 193f 50a1 163f
000003e0: 0e76 193f f559 0a3f b72d 143f f8e7 0e3f
000003f0: c63b 0ebf ad07 36bf 7ba1 2ebf ad18 34bf
-0.62456405 -0.5968435 -0.6286809 -0.63916326 -0.62017936 -0.58540994 -0.5644487 -0.64280766
-0.6152888 0.6480357 0.5864624 0.57278645 0.57993877 0.64029 0.61459416 0.58645874
0.58999217 0.6279252 -0.627687 -0.6428156 -0.6068859 -0.6314169 -0.64970815 -0.63237655
-0.60414743 -0.58513457 -0.65052664 0.58598024 0.549943 0.6100402 0.547603 0.56419843
0.5413686 0.6114448 0.62166363 0.549798 -0.5834126 -0.548313 -0.60064363 -0.56917346
-0.61323583 -0.5666311 -0.60600424 -0.5473505 -0.5938637 0.6574577 0.65665203 0.61851704
0.73474884 0.68614495 0.6979415 0.62849414 0.6456593 0.6048462 0.63559157 0.58439064
0.6265474 0.6323864 0.61066544 0.664649 0.58106434 0.6582046 0.61059946 -0.65064067
-0.6495677 -0.6385009 -0.6009902 -0.63110256 -0.61319464 -0.6502438 -0.5888976 -0.62816435
0.5976773 0.57457924 0.60263157 0.6281621 0.57208306 0.6140226 0.66012603 0.6250382
0.5863442 -0.5641403 -0.6077828 -0.603349 -0.5789608 -0.6014102 -0.61331 -0.5944644
-0.61504704 -0.5706152 -0.6239572 -0.62648475 -0.58579755 -0.59649575 -0.5993113 -0.60579467
-0.5836914 -0.56671405 -0.58732486 -0.6228233 -0.5503479 -0.62458897 -0.5947449 -0.60045075
-0.5480058 -0.5502604 -0.5880276 -0.55253613 0.6956908 0.72478026 0.9241488 0.669339
0.68010473 0.74349093 0.6967821 0.6559457 0.75575703 -0.62343997 -0.58902323 -0.57390654
-0.56643206 -0.64830095 -0.63499135 -0.56678224 -0.57233906 -0.5913563 -0.55911005 -0.5694067
-0.59735423 -0.6182629 -0.61270505 -0.5774599 -0.5861707 -0.5696379 -0.58296025 -0.6278665
-0.6035669 -0.68696284 -0.6233889 -0.64364403 -0.6367816 -0.6183048 -0.6837861 -0.6859894
-0.71748024 -0.692938 -0.68531394 -0.73903376 -0.6602068 -0.6661588 -0.6602604 -0.64218557
-0.6265383 -0.60067445 -0.58861446 -0.63703895 -0.63308895 -0.6415617 -0.573455 -0.63101757
-0.5769185 -0.5780968 -0.58340615 -0.58565676 -0.56164753 -0.542391 -0.5117421 -0.5566696
-0.57839763 -0.58484805 -0.5954465 -0.57094157 -0.60232544 -0.57082266 -0.6421798 -0.6164731
-0.61428297 -0.62063307 -0.5838672 -0.64120007 0.6997133 0.8036205 0.6991646 0.6331512
0.73556393 0.7837349 0.6817877 0.63472104 0.71844345 -0.6211438 -0.60346985 -0.6223721
-0.5651484 -0.59512436 -0.6151872 -0.5431144 -0.5831457 -0.5857705 -0.5782711 -0.6365681
-0.58060783 -0.6033774 -0.6046197 -0.6088049 -0.5916228 -0.5835289 -0.5685619 -0.59493506
-0.63851583 -0.5838939 -0.6458503 -0.60598904 -0.58194387 -0.6003713 -0.58042425 -0.570827
0.5701924 0.63564855 0.58878005 0.57309467 0.5702254 0.60489726 0.63477516 0.58081496
0.56366986 -0.5876751 -0.579554 -0.60127646 -0.6099372 -0.6577842 -0.63401526 -0.5755836
-0.6032128 -0.64460397 -0.5897357 -0.5824063 -0.58268213 -0.59141177 -0.60767466 -0.6261917
-0.63356555 -0.5903827 -0.6108883 0.5884761 0.60079753 0.57395196 0.59911036 0.58839893
0.5994576 0.54043514 0.57882255 0.55822706 -0.5555996 -0.7110546 -0.6821515 -0.7035015
