models/FBP_LPP_MODEL.pth (torch, 312877 bytes, 13 tensors)

layer1.0.weight f4 [128, 1, 3, 3]
000000 79 a7 94 bd 8a e4 8d 3d 24 a2 22 be a4 40 40 3e
       -0.072585054 0.06928356 -0.15882164 0.18774658
000010 a5 0f 95 3e 5e 14 75 be 55 b5 9e 3e bb a0 93 3d
       0.29113498 -0.2393355 0.3099772 0.07208391
000020 48 89 7f 3e 27 21 46 3d b5 82 27 3e 72 a7 38 bd
       0.24954712 0.04837146 0.16358455 -0.045081563
000030 19 e1 84 3e f3 15 57 3d 8a 20 1c be 0f 33 b1 3d
       0.25952986 0.052511167 -0.15246788 0.08652317
000040 42 90 1a be c8 bd 19 bd 11 46 01 be 8e 85 68 3e
       -0.15094092 -0.037534505 -0.12624384 0.22707197
000050 fe c3 8a be 94 83 13 be 1d f5 b4 bd ea e2 55 be
       -0.27102655 -0.14405662 -0.08835814 -0.20887342
000060 2e 08 2e 3d 4a 52 a9 be 35 0a 97 3e 57 24 91 be
       0.04248827 -0.33070594 0.29499975 -0.28348038
000070 35 3b 83 3e b8 ed 78 3d 90 b8 d6 bd c6 a0 5b 3e
       0.2563111 0.06077358 -0.10484421 0.21448049
000080 ce 4b 6d 3d 10 bb 88 3e 0f 46 44 3d 62 81 c4 bd
       0.05793362 0.26705217 0.047918376 -0.0959499
000090 c3 46 a8 3d e4 77 c2 bd 20 12 11 3e 22 ec 98 3e
       0.08216622 -0.094955236 0.1416707 0.29867655
0000a0 dc c4 49 3e 6e 95 12 be a4 d7 48 3e 64 a5 6c 3d
       0.19704002 -0.14314815 0.1961351 0.057774916
0000b0 8f 51 2b 3e 33 fd 55 be 1c 55 a9 be 0c 4e 02 be
       0.16730331 -0.20897369 -0.33072746 -0.12725085
0000c0 6c 33 88 be 83 fb 8a 3e bf f4 c5 3d 88 36 ff 3d
       -0.26601732 0.27145013 0.09665822 0.12461573
0000d0 9f 47 d1 3d 38 1f c5 bb 19 14 86 3e b8 f7 6b be
       0.10218739 -0.0060156845 0.26187208 -0.23043716
0000e0 eb 61 09 3d 55 1a 63 be e1 7b e2 3d 80 79 cc bd
       0.033540647 -0.22178014 0.11058784 -0.09984112
0000f0 ff a3 dc 3d 37 03 82 bd 5e b0 95 3e a8 2e 5b be
       0.10773467 -0.063482694 0.2923612 -0.21404517
000100 da 79 57 be c4 7f 51 be ae 12 91 3e 19 ea c1 3d
       -0.21042576 -0.20458895 0.28334564 0.09468479
000110 36 6f 9f 3e 0e 00 8e be 7c db ae be 25 6a 88 be
       0.31139535 -0.27734417 -0.34151828 -0.26643482
000120 4b 18 5c be 1d 33 11 3e d0 1f fe 3d ea 11 92 3e
       -0.21493642 0.14179654 0.124084115 0.28529292
000130 b4 e4 2a be 91 b0 62 be 96 7c 3f 3e 47 47 07 be
       -0.16688806 -0.22137667 0.1869987 -0.13210784
000140 cd e4 50 3e 18 f4 b6 bd 7e 89 43 3e 3e d1 7f be
       0.2039978 -0.08933276 0.19095418 -0.24982163
000150 2b c1 36 be b0 aa ce 3d 7c c8 97 3d 82 c0 c7 bd
       -0.17847125 0.1009115 0.07411286 -0.09753515
000160 d7 5b 44 3e 01 44 67 3e 03 46 82 be 56 a2 4c be
       0.19175659 0.22584535 -0.2544404 -0.19983801
000170 6d 41 94 3e 47 1f dd bd ea 39 01 be 0b 7d aa be
       0.28956166 -0.10796981 -0.12619749 -0.33298525
000180 8e 1d 2a be 98 a8 d3 3d 56 28 89 bc 00 9c 84 be
       -0.16612837 0.10334891 -0.016742866 -0.2590027
000190 1c b1 19 3c b2 02 5c be 86 29 91 be e6 a9 31 be
       0.009380605 -0.21485403 -0.28351992 -0.17349967
0001a0 4e ef 8e be 18 14 5d be 4a fe ac 3e 0c 84 92 3d
       -0.2791695 -0.21589696 0.33787757 0.07154092
0001b0 fc 33 c8 3d 0b 3a 9f be 81 00 5f be fb e7 e5 bd
       0.0977554 -0.3109897 -0.21777536 -0.112258874
0001c0 b8 74 9d 3d c4 51 8c be 68 75 1a be b9 85 57 be
       0.07688278 -0.27406132 -0.1508385 -0.21047105
0001d0 12 d3 1c 3b b7 26 1b be 33 da d6 bb f8 ce 57 be
       0.0023929519 -0.15151487 -0.006556773 -0.21075046
0001e0 01 a6 7a be ad 00 40 be 87 8e cc bd 52 4b 80 be
       -0.24477388 -0.18750258 -0.099881224 -0.25057465
0001f0 e9 13 98 3e a9 31 57 bd a1 7b 90 3e a3 e8 c3 3d
       0.2970269 -0.052537594 0.2821932 0.09565856
000200 e2 56 96 be 24 1a 6b 3e 85 b9 c3 bd 95 60 0a be
       -0.2936316 0.2295919 -0.095568694 -0.13513406
000210 c8 93 8d be 2e 0b aa be d9 a8 c1 3d ff 8f 9e bd
       -0.2765181 -0.33211654 0.09456033 -0.07742309
000220 90 b4 02 3e 87 c2 89 be a0 77 73 3e 36 18 74 be
       0.12764192 -0.26906225 0.23776102 -0.2383736
000230 d7 1f 4c bd 54 d1 91 3d 01 14 3c 3e 60 4c 90 3e
       -0.049835052 0.07120004 0.18367006 0.2818327
000240 fb f3 9e 3e 1b eb 83 be e9 b6 b9 3d 47 b4 0a be
       0.31045517 -0.2576531 0.090680905 -0.13545333
000250 71 52 fa bc 27 3d 77 be 17 d4 9e 3e 5b bf 75 be
       -0.03055689 -0.24144422 0.31021187 -0.23998778
000260 01 80 3c 3e 6e 65 fc 3d 4b 48 f0 3d 73 c1 35 be
       0.18408205 0.12324034 0.11732539 -0.17749576
000270 81 37 9b 3e 52 ae a0 3d 70 9c 34 3d f0 d9 93 be
       0.30315784 0.07845749 0.044094503 -0.2887721
000280 a7 b1 12 3e 0c 1c 44 bd b8 f9 24 be a3 52 8e 3e
       0.14325581 -0.04787831 -0.16110885 0.27797422
000290 eb 8f 90 3d c9 9e 48 be 07 d8 35 be b3 73 a9 bc
       0.070587 -0.19591822 -0.17758189 -0.020685052
0002a0 fe 89 32 3e 3b c3 b9 bd b3 bb 48 be 22 64 e5 bd
       0.17435452 -0.090704404 -0.19602852 -0.112007394
0002b0 3b ab 80 be e8 b9 f4 3d 7a b8 84 3e 36 35 9f be
       -0.25130638 0.11949521 0.25921994 -0.31095284
0002c0 02 ad ad 3d eb 0c 32 3e 5a 90 80 3d 09 16 e1 bd
       0.08480264 0.1738774 0.06277533 -0.10990531
0002d0 d1 e9 2d 3e d7 57 2e 3e 8e 54 fb 3d d1 ce 82 bd
       0.16983725 0.17025696 0.12271987 -0.06387103
0002e0 43 db bc bd 16 2f 01 3d c8 0e 7c bd 22 5d c6 bd
       -0.09221508 0.031539045 -0.061537534 -0.096857324
0002f0 47 5c 60 3e 47 77 94 3e f5 32 04 bd 49 6c 98 bd
       0.21910201 0.2899725 -0.03227516 -0.07442529
000300 c2 f1 2d 3c bc fc 96 bc ba 86 a6 3d c6 72 cd 3d
       0.010616722 -0.01843106 0.08131166 0.10031657
000310 a5 46 98 be d8 f3 f3 bd 6b c5 8c 3e 74 91 fe 3d
       -0.29741398 -0.11911744 0.27494368 0.12430087
000320 c7 bd bd bc 20 43 53 be df 4f 55 be 4d aa 9b be
       -0.023161782 -0.20631075 -0.2083125 -0.30403367
000330 f8 61 e6 bd 78 5a df 3d 49 c8 54 3e 90 19 17 3e
       -0.11249155 0.109059274 0.20779528 0.14755845
000340 5f 6b 96 be 68 be 4e be 0d 42 6f bd b3 93 a4 3e
       -0.29378793 -0.20189822 -0.0584126 0.32143936
000350 e8 01 27 3d c4 fc b6 bd ee 21 0e 3e f4 5d 08 be
       0.040773302 -0.0893493 0.1388013 -0.1331709
000360 f4 6c 62 be c3 ea 73 3e 2c 4b 22 be f8 40 95 bd
       -0.22111875 0.23820023 -0.15848988 -0.072877824
000370 6b a9 ac be 2a 48 5d 3e 5f 83 7b 3e df 19 e9 3d
       -0.33723006 0.2160956 0.24561833 0.11381888
000380 f5 46 76 be fe 70 a7 be f2 ef 89 be 14 ab 80 3e
       -0.24050505 -0.32703394 -0.26940876 0.25130522
000390 b1 66 25 3e 3d 23 90 3e 38 d2 34 3e a5 39 b0 3d
       0.16152455 0.28151885 0.17658317 0.08604745
0003a0 a1 9b 48 bb ea a8 80 be 0e 84 94 be 23 40 a3 be
       -0.003061034 -0.2512887 -0.29007 -0.3188487
0003b0 37 8c 0d 3e d7 13 10 be 6d 75 8d bd a7 04 3f be
       0.13823019 -0.14070068 -0.06907163 -0.18654118
0003c0 36 24 35 bd bb 73 74 be 22 fe 58 be 53 0b db 3d
       -0.044223987 -0.23872273 -0.21190694 0.10695519
0003d0 9b 8a d6 bd f8 39 50 3e 0e 6d df bd 47 8a 7b be
       -0.10475656 0.20334613 -0.109094724 -0.24564467
0003e0 84 09 64 bd 50 e7 25 be 39 30 df bd da 30 a2 be
       -0.055673137 -0.1620152 -0.108978696 -0.31677896
0003f0 ca 62 43 3e 11 93 6a be 40 05 2a 3e e2 26 24 3e
       0.19080654 -0.22907664 0.16603565 0.16030458

layer1.0.bias f4 [128]
000000 2f 5b a4 3e 15 80 6a 3e 68 f2 84 be 05 98 9b 3e
       0.32100818 0.22900422 -0.2596619 0.3038942
000010 64 de d4 3c 5b 90 24 3e 6e d3 84 3e 65 5f 91 3e
       0.02598495 0.16070692 0.25942558 0.28393093
000020 f7 73 85 be de e9 94 3e f8 ae 67 be 6a b5 cc 3c
       -0.26065037 0.29084677 -0.22625339 0.024988849
000030 4f 4c 6e be 0b 0b 96 bd 53 cd 7c bc f9 58 23 bd
       -0.23271297 -0.07326325 -0.0154298125 -0.039879773
000040 13 82 56 bd 88 d5 da 3c 17 52 a8 3e d7 6a 47 3e
       -0.052370142 0.026713148 0.3287513 0.1947435
000050 79 0c 3f 3e 8f 68 08 3e 3d 95 84 3e be c5 74 bc
       0.18657102 0.13321136 0.2589511 -0.014939724
000060 99 ad dc 3c 0d dd 8c 3d 24 c3 94 be d7 7d 89 be
       0.026938247 0.068780996 -0.2905513 -0.2685382
000070 e4 22 27 3d 03 09 05 be 05 51 c8 bb bb 41 9c bd
       0.04080476 -0.12991719 -0.006113174 -0.076297246
000080 b5 5a 54 3d e2 3b 5e 3e de a7 e2 bd e0 b1 88 3e
       0.051844317 0.21702531 -0.110671744 0.26698208
000090 7e be 86 3e 90 e1 82 be 2c 24 84 be f4 de 89 be
       0.2631721 -0.25562716 -0.25808847 -0.26927912
0000a0 e4 5a 39 be 38 0f 04 be 18 f4 cf bc 82 17 a3 bd
       -0.18101078 -0.1289643 -0.025384948 -0.07963468
0000b0 d7 74 2c be 3a a3 d8 bd e7 9f f7 bd 33 7e a7 3e
       -0.16841446 -0.10578008 -0.12091046 0.3271347
0000c0 3f bc fc bd 38 60 74 be 63 1c 0e 3e f3 55 99 bc
       -0.123405926 -0.2386483 0.13878016 -0.018717742
0000d0 6e 39 82 3e 21 55 55 3e dd 35 9c 3e 5e e3 77 be
       0.2543444 0.20833255 0.30509844 -0.24207827
0000e0 9b 7f 5b 3e eb 93 8f 3e 17 af 28 be 08 f5 9c 3e
       0.21435396 0.2804254 -0.16473041 0.30655694
0000f0 9e 14 80 3e 2b 9d 57 3b e6 a8 24 3e 8c 9d ed bd
       0.2501573 0.0032900076 0.16080055 -0.11602315
000100 3e 91 95 be 40 52 ad 3d f8 98 cb 3d 15 87 5f be
       -0.29212373 0.084629536 0.09941286 -0.21828873
000110 7a 3c 25 3e ee 3e 91 be 3a ee 92 3e 89 4d a5 3e
       0.16136351 -0.28368324 0.28697377 0.32285717
000120 0e 8f ba 3d 22 c9 54 be 5b 94 26 3e 46 46 6c 3d
       0.09109317 -0.20779851 0.1626753 0.057684205
000130 ab d3 b9 3d 01 1c e2 3d 78 a2 81 3e 37 7c 12 be
       0.090735756 0.110404976 0.25319266 -0.14305197
000140 10 18 9a bd be 29 b9 3d e5 d8 12 3d ba 49 89 3e
       -0.07524121 0.09041165 0.035851378 0.2681406
000150 8f 36 33 be 73 c0 41 bc f9 81 81 3d 77 e7 b4 bd
       -0.17501281 -0.011825669 0.063236184 -0.08833211
000160 ff 1c 69 3e a6 32 13 3d bb ba 9d be ed a0 10 bd
       0.22764967 0.035936974 -0.30806527 -0.03530972
000170 28 06 1b be 65 7e 04 3d ac d7 1d bd 9b 62 a9 be
       -0.15139067 0.0323471 -0.03853576 -0.33083043
000180 8c 6f 79 bd 49 4f 03 bd d3 1b cc bd bf 77 9c 3e
       -0.060897395 -0.032058034 -0.099662445 0.3056011
000190 c8 8c 94 bd 8f 71 59 3e f8 cc ae 3d 09 1d 90 be
       -0.072534144 0.21234725 0.085351884 -0.28147152
0001a0 80 8c a0 3d 21 3f 8d 3e 0d f9 5f be 56 3a 5c be
       0.07839298 0.27587226 -0.21872349 -0.21506628
0001b0 35 e1 a6 3e f5 03 89 3e 1a a1 3e be c8 e5 4d 3e
       0.32593694 0.2676083 -0.18616143 0.20107186
0001c0 0b b3 2d bd 67 5d a8 be ee e4 c6 3c 2b e4 de 3d
       -0.042407077 -0.3288376 0.024279084 0.10883363
0001d0 4e fd d0 bd 3d ed ec 3d 87 f7 91 be 58 40 6c 3e
       -0.10204564 0.11568687 -0.2850916 0.2307142
0001e0 a1 73 90 3e 99 53 3c 3e 7d 2c 68 3d 02 f4 e0 3d
       0.28213218 0.18391265 0.056683052 0.10984041
0001f0 4d 06 77 be 38 3a aa bd c0 f9 02 bd 3f f0 3d be
       -0.24123497 -0.083118856 -0.03197646 -0.18548678

layer1.1.weight f4 [128]
000000 8c 8e 7f 3f 36 a0 80 3f f9 f6 7f 3f ea 2b 80 3f
       0.99826884 1.0048892 0.99986225 1.0013402
000010 1f e2 7e 3f 61 7e 80 3f 60 b8 7d 3f 73 8c 80 3f
       0.99563783 1.0038568 0.9910946 1.0042862
000020 63 78 7e 3f 9b 5d 80 3f c2 6e 80 3f b7 4d 80 3f
       0.99402446 1.0028566 1.0033801 1.0023717
000030 e5 5a 7f 3f 60 18 80 3f 61 0f 80 3f 31 4c 7f 3f
       0.9974807 1.0007439 1.0004693 0.99725634
000040 7c 43 80 3f a9 b1 7e 3f 29 89 7f 3f d1 36 7f 3f
       1.0020595 0.9948984 0.99818665 0.9969302
000050 06 d8 7e 3f 1a b0 80 3f b1 61 7f 3f 27 8e 7d 3f
       0.99548376 1.0053742 0.9975844 0.9904503
000060 1e 49 7e 3f 45 0a 7d 3f 82 01 80 3f 9e f1 7f 3f
       0.9933032 0.98843795 1.000046 0.99978054
000070 65 56 80 3f 5d c3 7e 3f c8 7c 80 3f 02 e0 7f 3f
       1.0026366 0.9951685 1.003808 0.99951184
000080 2f 94 7f 3f ea 62 80 3f 7e 89 80 3f 6f 00 81 3f
       0.99835485 1.0030186 1.0041959 1.0078257
000090 d1 bb 7f 3f 8a 4e 7f 3f c3 7f 7e 3f 3c c1 7e 3f
       0.9989596 0.99729216 0.994137 0.995136
0000a0 9a ec 79 3f 74 f9 7f 3f ce c3 7e 3f 37 28 7f 3f
       0.9762665 0.9999001 0.99517524 0.9967074
0000b0 5c 16 80 3f a5 9a 7e 3f c8 ff 7f 3f a8 29 80 3f
       1.0006824 0.9945472 0.99999666 1.0012712
0000c0 7f 6f 7f 3f 17 47 80 3f f6 28 7f 3f 69 8c 7f 3f
       0.99779505 1.0021695 0.99671876 0.99823624
0000d0 49 93 7f 3f 17 6c 82 3f cf 0b 80 3f b6 59 7e 3f
       0.99834114 1.0189236 1.0003604 0.9935564
0000e0 a1 89 80 3f ca 89 80 3f 0b 30 80 3f 9f 1b 80 3f
       1.0042001 1.004205 1.0014662 1.0008429
0000f0 c0 d0 7f 3f ad f3 7f 3f 2c 3b 80 3f 84 a8 7f 3f
       0.999279 0.99981195 1.0018058 0.9986651
000100 07 31 80 3f cd 2b 80 3f 87 eb 7f 3f 91 9c 7f 3f
       1.0014962 1.0013367 0.9996876 0.99848276
000110 71 75 7f 3f 96 bd 83 3f 2f b7 7e 3f 28 82 7f 3f
       0.99788576 1.0292232 0.99498266 0.9980798
000120 70 cf 7e 3f 4d 97 7d 3f 51 84 7f 3f 1b 4e 7e 3f
       0.99535275 0.9905899 0.99811274 0.9933793
000130 4f 01 80 3f d8 21 7e 3f 2b a1 7f 3f cd de 7f 3f
       1.0000399 0.9927039 0.998553 0.9994934
000140 13 da 7f 3f 76 23 80 3f da 56 7f 3f bf a4 7f 3f
       0.9994213 1.0010822 0.997419 0.9986076
000150 9b 25 80 3f 6d 91 7e 3f b6 a7 82 3f fa 98 7e 3f
       1.0011476 0.9944065 1.0207431 0.99452174
000160 b5 7c 7f 3f 2e f5 7d 3f e8 0a 80 3f e1 c4 81 3f
       0.9979966 0.9920224 1.0003328 1.0138208
000170 53 3b 80 3f 1b 71 80 3f cf e9 7f 3f ce 54 7f 3f
       1.0018104 1.0034517 0.9996614 0.99738777
000180 21 3a 80 3f 7d 7e 7f 3f 54 66 7c 3f 27 16 7f 3f
       1.001774 0.9980238 0.9859364 0.99643177
000190 97 d8 7c 3f 29 6d 80 3f 36 f8 80 3f 6d 01 80 3f
       0.9876799 1.0033313 1.0075748 1.0000435
0001a0 df 24 80 3f 3b 98 7e 3f 23 dd 7b 3f 93 72 7e 3f
       1.0011252 0.99451035 0.983843 0.99393576
0001b0 70 c8 7f 3f de f5 7f 3f 27 12 80 3f 61 23 80 3f
       0.9991522 0.9998454 1.000554 1.0010797
0001c0 e1 f9 7a 3f a1 08 80 3f 01 d0 81 3f 34 b6 84 3f
       0.98037535 1.0002633 1.0141603 1.0368104
0001d0 a4 e7 7e 3f 6d 34 7f 3f b9 ff 7f 3f 9e 9d 7f 3f
       0.99572206 0.9968937 0.99999577 0.9984988
0001e0 2e 74 7e 3f ed 50 80 3f 74 0d 80 3f 42 e9 7d 3f
       0.99396026 1.0024697 1.0004106 0.9918405
0001f0 8e 49 80 3f 9c 9d 81 3f a2 12 81 3f 9e a0 81 3f
       1.0022447 1.0126224 1.0083811 1.0127141

layer1.1.bias f4 [128]
000000 32 db 08 3c 8f fb 83 ba 9c 1d 0e 3b b5 09 74 39
       0.0083530415 -0.0010069477 0.002168513 0.0002327327
000010 b0 18 39 bb 8d fa 6c ba 8b 06 40 bb 7a 14 a4 bb
       -0.0028243475 -0.00090400205 -0.0029300775 -0.005007324
000020 bb 1c 18 3a 76 19 0e bc 48 f6 80 bb c4 58 a4 3b
       0.0005802621 -0.008673063 -0.003935609 0.0050154645
000030 71 0a 6e 3a be 50 0c bc 78 ba a6 3b 90 40 d1 b9
       0.00090805354 -0.008564172 0.005088147 -0.0003991169
000040 88 cc 94 3c 4f 42 01 bc e5 52 8d bc 1b 66 a0 3a
       0.018163934 -0.007889344 -0.017251441 0.0012237461
000050 db ba e9 39 2c 3f c3 3c 1c 32 ec 3b f5 02 4b 3a
       0.0004458044 0.023833834 0.007208122 0.0007744276
000060 88 89 ac 3b 73 0c 1a 3c 4f 54 03 3c 1d 50 e4 3b
       0.0052654184 0.009402382 0.008015706 0.006967558
000070 5e 9a d7 3c 5b a0 a5 bb c5 de 74 3c f6 f1 c5 3a
       0.026318725 -0.0050545163 0.0149456905 0.0015102017
000080 d7 21 bb 39 25 7d 68 3a d1 48 12 3c 4b a3 76 3c
       0.00035692632 0.00088687456 0.008928494 0.0150535805
000090 78 d8 20 3c 68 b7 77 3a f9 a0 93 bc ec c1 a8 bb
       0.009817235 0.0009449632 -0.018021094 -0.0051500704
0000a0 e5 20 e7 3b 4d be c0 3c 7d f4 56 bb e9 81 f8 ba
       0.007053482 0.023528242 -0.0032799535 -0.0018959615
0000b0 21 91 2b 3b cd 3d c8 3c 7b c5 ac 3b ea cf a8 3b
       0.0026179033 0.024443531 0.005272565 0.0051517384
0000c0 87 e5 0d bc 57 a7 60 3b c8 50 22 3b 26 58 35 bb
       -0.008660681 0.003427943 0.0024767388 -0.0027670949
0000d0 c3 04 0f 3c a7 c2 8f bd ee 9a bf ba b2 f9 1c 3b
       0.008729163 -0.07019549 -0.0014618316 0.002395254
0000e0 fa d0 51 bb 41 e5 83 bc 04 2e 1a 3c 98 97 7b bb
       -0.003201543 -0.016100528 0.009410385 -0.0038389917
0000f0 ab f8 1d bb 20 ab 24 3b be d8 73 bb 96 86 0e bb
       -0.0024104516 0.0025126413 -0.0037208046 -0.00217477
000100 c8 10 81 3c 43 31 72 3b 06 bf ee bb 46 1c 4f bc
       0.015755072 0.0036955632 -0.0072859554 -0.012641018
000110 24 b0 b8 3b 81 5e f1 bb bd 43 77 b9 39 1a d7 39
       0.005636232 -0.007366002 -0.0002358099 0.00041027533
000120 9c 6f 34 bc da 36 31 3c 9c d6 c1 3b 24 ac 9c bc
       -0.011012938 0.0108163 0.005915476 -0.019125052
000130 d5 fa 04 ba db 20 3b bc 06 0f 61 3c 32 83 c0 bb
       -0.0005072777 -0.011421408 0.013736492 -0.0058750147
000140 72 19 b7 3b ec d8 a0 ba d3 4b 12 3b 9f cb de 3b
       0.00558775 -0.0012271679 0.0022323027 0.006799176
000150 c4 79 41 bb 20 6d df ba ae 1b 2b bb 71 03 ef bc
       -0.002952204 -0.0017046072 -0.0026109028 -0.029176446
000160 95 4a 07 ba 1c c4 e7 ba c6 f5 ef b9 16 70 48 bd
       -0.0005160955 -0.0017682347 -0.00045768748 -0.04893502
000170 fb f9 ba 39 14 0e cb bb 67 ec 41 3c a6 06 f6 3b
       0.00035662935 -0.0061967466 0.011836148 0.007508117
000180 12 4c 90 3b 23 24 c3 ba ff 23 85 3b fc 48 ba bb
       0.0044035995 -0.0014888089 0.004063129 -0.00568497
000190 96 9a 9e bb 1b de 59 3c 57 5b 2f bd 3a a7 6b bb
       -0.0048402054 0.013297583 -0.042811718 -0.003595783
0001a0 ad 13 d1 3b d7 1c 0c bb 09 b8 73 bc 56 23 f1 bb
       0.0063805194 -0.0021379495 -0.01487542 -0.0073589487
0001b0 70 2f e9 3b 5e ce 4c 3a 33 83 f3 3a fe 12 91 bb
       0.0071162507 0.00078127335 0.0018578529 -0.004427313
0001c0 78 d8 d9 3b 09 78 8e 3b 5f 97 61 bc 22 22 cf bb
       0.0066481195 0.0043478054 -0.013769 -0.0063212076
0001d0 36 a8 10 3c 5e 69 87 bc 2c 8f c7 3b 5c c8 a3 3b
       0.008829167 -0.016529735 0.0060900655 0.00499825
0001e0 d4 53 a6 bb c5 a9 32 3c 22 96 15 bc b5 be 57 bb
       -0.005075911 0.010904734 -0.009130033 -0.0032920067
0001f0 4d 4b 8a bc 57 a8 c8 bc 31 44 03 3c f0 0a af bc
       -0.01688161 -0.024494333 0.008011864 -0.02136752

layer1.1.running_mean f4 [128]
000000 c0 0d f6 3e 09 fb 8e 3e 1c 8e ca be be 13 cc 3e
       0.48057365 0.279259 -0.39561546 0.39858812
000010 9c 64 6a 3e d0 8a ab 3d e2 b6 9a 3e e8 20 ca 3d
       0.22889942 0.08376086 0.30217654 0.098695576
000020 7c 63 5b be cc 77 a8 3e 62 2a d1 be 10 dc 4d be
       -0.21424669 0.32903898 -0.40852648 -0.20103478
000030 cb c5 f5 be c1 d7 8d be 43 71 e6 bd 71 3e a6 3c
       -0.48002467 -0.2770367 -0.11252072 0.020293446
000040 3a 62 61 bd 53 d5 be 3d bf 9c 83 3e 94 cb 33 3e
       -0.055025317 0.09318032 0.25705525 0.17558128
000050 f6 68 8d 3e ec c0 f4 3d 23 1a 69 3e 1d 2c 32 bd
       0.2761914 0.119508594 0.22763877 -0.0434991
000060 c7 d3 b1 bc 92 35 be 3d cc cb 18 bf 29 dc e4 be
       -0.021707429 0.092875615 -0.5968597 -0.4469922
000070 54 c6 1b 3e 03 55 8c bd c3 b0 af bd 6a 21 2d be
       0.15212375 -0.06852152 -0.085786365 -0.16907278
000080 0a d7 2a be 2c b7 bc 3d 57 c8 2b 3e 33 e7 83 3d
       -0.16683593 0.09214625 0.16775642 0.06440582
000090 77 db ca 3d 36 0b ff be 48 eb 2b be 20 ca ba be
       0.09905141 -0.4981324 -0.16788971 -0.36482334
0000a0 e2 7f 30 be bb c4 47 be ea c9 9e 3d 55 3e db bd
       -0.17236283 -0.1950864 0.07753356 -0.10705248
0000b0 e1 4e bc be 35 6e a9 3a 58 35 58 be c2 80 7c 3e
       -0.3677893 0.0012926521 -0.21114099 0.24658492
0000c0 52 b5 d8 bb ed 39 a9 be 1e e3 73 3e 9c d0 67 3d
       -0.006613412 -0.33052006 0.23817107 0.05659543
0000d0 39 da 68 3e f3 29 3f 3e a3 0e e5 3e 0a 60 8a be
       0.22739495 0.18668346 0.4473773 -0.27026397
0000e0 ee 2c 87 3d e0 30 9f 3e 2a 10 8f bb 4b 26 36 3e
       0.066003665 0.31091976 -0.0043659406 0.17788045
0000f0 ec f7 f1 3e 03 e0 74 3e 0c cd 91 be 2f bf 61 be
       0.47259462 0.23913579 -0.2847675 -0.22045587
000100 49 4a 73 be 6c e4 48 bd f3 9f cc 3a ba 8f 50 bd
       -0.23758806 -0.049045965 0.0015611633 -0.05091832
000110 76 58 9f 3c fe 0e a9 be 39 21 25 3d 11 d6 7b 3e
       0.019451361 -0.3301925 0.040314887 0.24593379
000120 a6 7b 4a 3e 76 5f 25 be 0f a0 42 3e 8b 74 06 3d
       0.1977373 -0.16149697 0.1900637 0.032825988
000130 41 f5 96 3e 84 59 6e 3d db 39 b8 3e a0 e4 84 bd
       0.2948399 0.058190838 0.3598164 -0.06488919
000140 f4 b1 a0 be 52 e2 92 3e 3c ef b2 3d f2 ce b9 3e
       -0.31385767 0.28688294 0.087370366 0.362907
000150 dd 58 dd be 88 3d 17 bd 8d 2e d7 3c d9 3a 94 bd
       -0.4323186 -0.036923915 0.026267314 -0.07237787
000160 5d 63 19 3e f3 27 b4 3d 43 53 bd bd e7 1b 5d bd
       0.1497931 0.08796682 -0.092443965 -0.053981688
000170 20 cb ac be bc 34 0b be c9 06 98 3d 6e 1c fd bd
       -0.33748722 -0.13594335 0.07423169 -0.12358938
000180 b2 43 12 bc ab 90 82 3e 20 c2 a1 bd 12 97 ca 3e
       -0.008927273 0.25500998 -0.078983545 0.39568383
000190 9a 57 a4 bd ec b5 70 3e 08 32 e2 3d e8 5e fd be
       -0.08024521 0.23506898 0.11044699 -0.4948647
0001a0 5d 38 90 be 49 2c 4d 3e 2a 42 64 be 51 ba 08 be
       -0.28168002 0.20036425 -0.22290865 -0.13352324
0001b0 d9 b0 03 3f 9b 44 42 3e 9c e7 86 be ba 55 c1 bb
       0.51441723 0.18971483 -0.2634858 -0.005900112
0001c0 8f bb 37 bd b0 92 fb be 8d e4 24 3c e0 8f b9 3d
       -0.044856604 -0.4913535 0.010064256 0.09060645
0001d0 ab 10 83 bd d0 44 cb 3d 0f 1c a3 bd b6 dc 12 bd
       -0.063996635 0.09925234 -0.07964336 -0.035855018
0001e0 66 aa b8 3e 6d 99 bf 3e 21 c2 dc 3d 45 06 36 3e
       0.36067504 0.37421742 0.10779215 0.17775829
0001f0 4b 9e 78 be f6 5a 73 bd ea 48 7b be fc 5d 53 be
       -0.24279134 -0.05941292 -0.24539533 -0.20641321

layer1.1.running_var f4 [128]
000000 56 9e b5 3c 40 7d 3a 3b 87 8f 80 3c 96 25 04 3c
       0.022170227 0.0028456002 0.01569344 0.008065602
000010 49 8d 0b 3d 9a f8 c5 3b 69 05 f5 3a 9b 07 eb 3c
       0.034070287 0.0060415985 0.0018693629 0.02869015
000020 49 db 11 3b c1 f1 07 3b a9 68 e4 3c 6a da 2f 3d
       0.0022255948 0.0020743462 0.027881937 0.042932905
000030 60 23 4e 3d 40 5a 0d 3d c7 a7 16 3c af 22 7b 3b
       0.050326705 0.034509897 0.009195275 0.0038320234
000040 3e 57 70 3a b0 18 8d 3b d3 f6 99 3b 46 e0 8f 3a
       0.00091682735 0.0043059215 0.004698613 0.0010976873
000050 38 b7 e3 3b 0b 35 82 3a 2c 96 c6 3a 84 00 a2 3a
       0.0069493316 0.0009934021 0.0015150956 0.0012359773
000060 82 36 21 3b 5d df bd 3a a1 c2 9d 3d fc 66 dc 3c
       0.002459914 0.0014486123 0.07703138 0.026904576
000070 3d 0d 31 3c 0b 8e 85 3b b9 57 dd 3b 5f d2 00 3c
       0.010806379 0.0040757707 0.006754842 0.007862656
000080 a7 1a 26 3d 48 97 54 3c f8 a6 85 3d 1d 16 0d 3d
       0.04055276 0.012975521 0.065259874 0.034444917
000090 c8 ca ba 3c aa d7 47 3d 03 6e 08 3c 5e e8 06 3c
       0.022801772 0.048789658 0.00832701 0.008234112
0000a0 4a 92 3a 3a 3b 90 87 3b a3 4c 22 3c c8 1e 9a 3a
       0.00071171357 0.0041370667 0.009905967 0.0011758441
0000b0 fa ed 07 3d fd e1 22 3c 89 2c fd 3b f8 2e c5 3b
       0.033185937 0.009941575 0.0077262563 0.006017562
0000c0 43 b6 49 3c 87 6d 07 3c 99 a5 0d 3c 74 47 d7 3b
       0.012311521 0.008265859 0.008645439 0.006569797
0000d0 08 dc bc 3a fa 7f 2e 3b b7 9e 89 3c 9d 46 94 3a
       0.0014408836 0.0026626573 0.016799314 0.0011312548
0000e0 95 e6 9b 3c 32 8d fa 3a fa a4 ae 3c 1d a0 61 3c
       0.019030849 0.0019115566 0.021318901 0.013771084
0000f0 37 b5 29 3d e7 fc 3e 3d 2e 9b 26 3e 3b 18 1e 3c
       0.041432586 0.046627905 0.16270134 0.009649332
000100 02 02 42 3b 2a 0e 83 3c 61 2b 1d 3c e8 e4 bf 3c
       0.0029603248 0.015997965 0.009592862 0.02342458
000110 04 b2 8b 3c 5a 69 52 3b 1a c6 50 3d 8c c1 b6 3b
       0.017052658 0.0032106251 0.050970174 0.005577272
000120 bf 06 2f 3c 0e 20 0f 3b a9 a3 f2 3a 78 57 8e 3a
       0.010682761 0.0021839174 0.0018511909 0.0010859808
000130 40 36 12 3d a5 0b 64 3b 84 dc 22 3c 9c 9e bf 3b
       0.035696268 0.003479698 0.00994027 0.005847765
000140 e3 5a 43 3d 54 91 02 3d f8 fe 56 3b d5 3a 05 3c
       0.0476941 0.031876877 0.0032805782 0.008131702
000150 a8 90 60 3d 76 a1 ce 3a 60 7c 03 3b ef b9 bd 3a
       0.054825455 0.0015764672 0.0020063147 0.0014474968
000160 cb af ad 3b 83 d0 29 3b 4c 59 1d 3d 26 54 2e 3a
       0.005300497 0.0025911636 0.03841524 0.00066501123
000170 d9 79 ee 3c 36 d5 cf 3c ed 46 3f 3c 6a 2c 18 3d
       0.029110836 0.025370222 0.011674625 0.03715173
000180 56 91 35 3b 22 a8 8a 3d b6 9e 84 3a bd 84 ed 3b
       0.0027705035 0.0677035 0.00101181 0.0072484897
000190 85 0f 7a 3a 0e fb 97 3a 93 06 32 3b 5d 45 1b 3d
       0.0009539056 0.0011595206 0.0027164563 0.037907947
0001a0 80 7d d9 3d 1a 0f b4 3b 14 d0 47 3a 5a 90 c0 3b
       0.1061964 0.0054949643 0.00076222536 0.005876583
0001b0 42 96 f9 3c 36 f7 b4 3b 80 58 d1 3b dd 64 10 3d
       0.030467156 0.005522634 0.006388724 0.03525244
0001c0 3d a0 1a 3a 24 cc b2 3c 4c 58 32 3a c4 b3 3f 3a
       0.0005898511 0.021825857 0.00068033184 0.0007312859
0001d0 63 f1 ed 3a 19 b0 ad 3a c0 32 11 3d 6f ee 6f 3d
       0.0018153604 0.0013251334 0.03544879 0.058576997
0001e0 b4 88 d4 3b 4e e7 f5 3c 95 07 33 3b a5 83 a1 3b
       0.006486023 0.030017521 0.0027317752 0.0049290233
0001f0 36 a6 de 3a 9c c5 3c 3b 90 e7 18 3d 6b 00 c1 3a
       0.001698679 0.0028804308 0.03733021 0.0014724856

layer2.0.weight f4 [64, 128, 3, 3]
000000 b0 80 a2 bc 01 82 af 3c ee 97 a0 3c 56 7c cf bc
       -0.019836754 0.021424295 0.019603696 -0.025327843
000010 68 09 31 3c e1 29 3f 3c 24 cc e4 3c 5c 6b 8c 3c
       0.010805465 0.0116677 0.027929373 0.017141037
000020 47 52 d3 3c ae 4e 17 bc ac 7a ca 3c c3 90 e7 3c
       0.025796069 -0.009235067 0.024716698 0.02826727
000030 ff 44 c5 bc 39 64 8e bc cb 02 0a 3c 02 93 90 3c
       -0.024080751 -0.017381774 0.008423517 0.017648224
000040 b5 25 6a bc 1d 7f 6e 3a f5 14 7f 3b 97 de 39 3c
       -0.014291217 0.0009097921 0.0038922403 0.011344573
000050 14 e8 57 bc 73 f1 9f 3c 5f 44 b5 3c 00 22 98 bc
       -0.01317789 0.019524312 0.022127328 -0.0185709
000060 d8 a4 62 3b a7 dc 69 3b 07 e8 2b 3c ff 75 01 3d
       0.0034583118 0.0035684498 0.010492331 0.03160667
000070 9d c5 23 3c 0b 64 ea bb 5d 8d e9 3c e9 29 33 bc
       0.009995845 -0.0071530393 0.02850979 -0.010935285
000080 44 ec 39 bc 8a 4a 7b 3b 7b 0f c4 bc 75 df 00 bb
       -0.011347834 0.003834399 -0.023933163 -0.001966444
000090 8a 0c 92 bc 84 25 a6 3b c4 08 89 3b 11 5d c4 3b
       -0.017828245 0.00507039 0.004181953 0.0059925397
0000a0 dc 22 c3 bc ee 09 e3 bc a1 22 69 3c cf 43 d2 3c
       -0.023820333 -0.027714696 0.014229448 0.0256671
0000b0 b3 fd d3 bc 7d f3 05 3c a1 87 a7 bc 82 70 8f 3b
       -0.02587781 0.008175728 -0.020450415 0.0043774256
0000c0 6d 3e e0 3c 01 bc d1 3c 4e 99 9c bc 25 1b a5 3c
       0.027373517 0.025602343 -0.01911607 0.020154545
0000d0 cc 87 9e 3c 25 51 22 3b 1a 8b c7 3c b6 0c 20 bc
       0.019351862 0.0024767604 0.024358321 -0.0097686555
0000e0 f1 db d4 bb de a2 64 bc f8 0c 99 39 8f 80 16 3c
       -0.0064959456 -0.013954846 0.00029192097 0.009185924
0000f0 7d 52 98 ba 03 a6 67 bc db c9 33 bc a1 19 6b 3c
       -0.0011621263 -0.014138701 -0.010973419 0.014349372
000100 64 81 b5 bc 61 77 bb ba 22 fd 7a 3b cf ce 03 bc
       -0.022156425 -0.0014302545 0.0038297852 -0.0080449125
000110 f5 be 5b 3c 77 54 4e 3b 16 70 b3 3c 4e c4 d6 ba
       0.013412227 0.003148345 0.021904033 -0.0016385408
000120 98 5b 7a bc 64 30 b0 3c 45 d2 2b 3c 0b f0 d6 bb
       -0.015280627 0.02150745 0.010487144 -0.006559377
000130 2c 07 6b bc d6 c5 08 3c 5b 91 d8 bc 8c 66 e4 3b
       -0.014344972 0.008347949 -0.026436498 0.0069702324
000140 dd 3d 87 3c d7 f8 ba bc ff a0 84 bc c3 20 01 bd
       0.01650899 -0.022823734 -0.01619005 -0.031525385
000150 3c 62 aa 3c d8 06 d3 3c a1 e5 ad bb 23 e9 ae 3c
       0.020798795 0.0257601 -0.005306915 0.021351403
000160 50 ee 49 bc bc 7e 10 bd e9 0c 82 3c aa 95 82 3c
       -0.0123248845 -0.035277113 0.015875297 0.015940506
000170 29 9b 04 3d d9 d2 2a 3b e4 d1 d5 3c bf ba af 3c
       0.032374535 0.0026065616 0.02610106 0.021451352
000180 87 f6 c1 3c 20 06 d6 bc 6d 4f e3 3c 42 0a ac bc
       0.023677124 -0.026125968 0.027747834 -0.021000985
000190 72 9c fa 3c cd 28 01 3b f3 e5 c3 bc 6f 33 33 3c
       0.030592177 0.0019708157 -0.02391336 0.010937556
0001a0 ad 2f 66 bb 9e f3 c3 bc 5f 4b ee bb 78 f5 d8 3b
       -0.0035123632 -0.023919877 -0.0072721685 0.006621059
0001b0 8a 23 df 3c 95 f1 cb bb 00 6b 9f 3c 2b e2 e0 3b
       0.027238626 -0.006223867 0.019460201 0.006862899
0001c0 2a 20 70 3b db e5 f3 3b 1d 3b 8a bc 23 6d b1 bc
       0.0036640265 0.0074431724 -0.01687389 -0.021658486
0001d0 a4 a3 fd bb 58 a2 bc bc cf 2f 1e bc 60 48 9d 3b
       -0.0077404547 -0.02302663 -0.009654953 0.0047998875
0001e0 65 97 8a bc dc 89 16 bc f0 b2 20 bb 87 d5 53 ba
       -0.016917894 -0.009188142 -0.0024520718 -0.0008080829
0001f0 84 6d 53 bc 44 87 a0 3b 0c 4b 87 bb a8 4c cf 3b
       -0.0129045285 0.0048989374 -0.0041288193 0.006326277
000200 1c ec 2a bb 9d 95 36 bc 73 c1 0e bc ad 83 ca bb
       -0.0026080674 -0.011144069 -0.008713114 -0.0061802478
000210 39 52 a0 bc 9f e5 41 ba 84 39 5d bc 29 b5 4f 3c
       -0.019570457 -0.0007396582 -0.013502482 0.012677469
000220 9a 15 cb 3b aa d0 a0 3c 03 0b 7c bb 64 7c ab bc
       0.0061976435 0.019630749 -0.0038458712 -0.020933338
000230 3a a1 50 3c c3 e9 bb bc e9 89 ac bb a4 38 21 bc
       0.012733752 -0.022938615 -0.0052654636 -0.009840164
000240 5e 7b 11 bb bd c8 8d 3b 4d da 31 3d bd 08 f3 3c
       -0.0022198777 0.0043269084 0.04342108 0.029667253
000250 ee 79 2d 3c f8 06 31 3d 21 bd bf bc 91 12 8c 3c
       0.010588152 0.043219537 -0.023405613 0.017098697
000260 c2 88 f1 3c ce 7e ab 3c dd 73 b1 bc 18 f1 38 3c
       0.029484157 0.020934489 -0.021661693 0.01128795
000270 96 ad 7d bc 69 ca 4c 3b a7 4e 83 bb d6 92 c9 bc
       -0.015483281 0.0031248576 -0.004007179 -0.02460615
000280 ec 6f dd bc d2 52 94 bc 7e f0 81 3c 43 89 a9 3c
       -0.027030908 -0.018105898 0.015861746 0.020695334
000290 59 41 a3 bc 9b 9f 26 bc 85 1c f9 3a f9 c6 b2 bc
       -0.019928621 -0.010169889 0.0019005692 -0.021823393
0002a0 f4 fe 98 3c da bb d5 3c 46 aa d0 3b 86 76 a8 bc
       0.018676259 0.026090551 0.0063679544 -0.020564329
0002b0 63 31 42 3c 7a 99 a6 3c f9 f5 84 3c 14 2c 78 bc
       0.011852595 0.020336855 0.01623057 -0.015147228
0002c0 fb 1a 6c bc 31 b2 80 3c 8a f2 99 bb cb c9 bc 3a
       -0.0144107295 0.015709968 -0.0046981024 0.0014403401
0002d0 7a d5 3e bc b8 bb 7d bc 84 83 c9 3c 0e e7 83 bb
       -0.0116475765 -0.01548665 0.024598844 -0.0040253466
0002e0 81 c6 ae 3c c2 ad ce 3c 10 dc 80 3b 40 f0 e5 3b
       0.021334888 0.025229339 0.0039324835 0.0070171654
0002f0 cc 88 83 bb 18 86 5a 3c 06 9e e1 bc 23 0f 22 3c
       -0.00401411 0.0133376345 -0.027541172 0.009891304
000300 51 c2 22 bc ca 7f a2 3b 0a 8f 97 bb c0 b6 96 bc
       -0.009934024 0.0049590813 -0.004625206 -0.018397689
000310 c0 ba 1d bc f7 03 8f ba a8 20 5b bc b4 e6 80 bc
       -0.009627044 -0.0010911216 -0.013374485 -0.015735008
000320 90 b4 fe bb 03 c1 01 bc 29 3f 47 3c 90 79 a4 3c
       -0.0077729896 -0.007919553 0.012161055 0.020077497
000330 2c a5 23 3b a5 13 29 3d 4b 86 a5 bb ad fb 67 bc
       0.0024970276 0.0412785 -0.0050514094 -0.014159125
000340 1f e0 0b bc 5c d3 be bc 8d 5d 90 bc 69 d7 90 bc
       -0.008537321 -0.023294143 -0.017622733 -0.01768084
000350 77 cf d9 bc 35 aa a1 38 f5 45 dc 3c 71 f4 ea 3c
       -0.026588185 7.708782e-05 0.026888827 0.028681012
000360 ed 0b d1 3c 76 56 87 3b 99 d2 2f 3c 5d ff b7 bc
       0.025518382 0.00413018 0.010731363 -0.022460634
000370 24 01 42 3c 06 54 c8 bc 5c 69 9a 3c ff e4 eb 3b
       0.011841092 -0.024454128 0.018849067 0.0071989293
000380 53 9a 85 3c 0b 28 ab 3c d7 6d bf bb 9c 6a f3 3c
       0.01630894 0.020893117 -0.0058419514 0.029713921
000390 52 6b a1 3c 03 d0 96 3c e7 2a 6a ba d5 2a aa 3c
       0.019704495 0.018409735 -0.00089327845 0.020772377
0003a0 e8 85 f2 3c b7 f8 8e 3c b9 1f df 3c a5 10 a2 ba
       0.029604867 0.01745258 0.027236806 -0.001236458
0003b0 1b 3b b6 3c 75 4b 1b 3c f2 8d a6 3c c1 c1 00 3d
       0.02224498 0.00947844 0.020331357 0.031434778
0003c0 fb 0b 10 3c a9 a4 0f bc 29 33 fa b9 a0 74 39 3c
       0.008791919 -0.008767285 -0.00047721833 0.0113193095
0003d0 e4 6b 02 3c af b7 ac bb 2f c5 cc 3c 49 2c a4 3c
       0.007960293 -0.00527092 0.024996368 0.020040648
0003e0 99 b4 82 bc 0e 23 92 ba 97 9c 2a bb b4 4e 99 bc
       -0.015955256 -0.0011149363 -0.0026033276 -0.018714286
0003f0 19 41 b3 3b 53 2b 8d bb e0 cc 37 bc 48 fc af bb
       0.0054704067 -0.004308143 -0.01121828 -0.0053706504

layer2.0.bias f4 [64]
000000 2b 87 ac 3c 1c df a1 3c f6 f0 3a 3c 4a 71 8d bc
       0.021060547 0.019759707 0.011409989 -0.017265934
000010 33 37 a4 bc d5 b6 da bb 74 e6 e8 3c 11 82 f3 bb
       -0.020045852 -0.0066746273 0.028430201 -0.0074312766
000020 9f a3 d3 ba c1 cb f1 bb d4 73 e9 bb ab b6 52 3b
       -0.0016146785 -0.0073790257 -0.0071244035 0.0032152336
000030 9d a3 6d bc 95 56 87 bc f2 7e e4 bc 49 08 61 3c
       -0.0145043405 -0.016520778 -0.027892563 0.0137348855
000040 b6 23 8a 3c ae a0 6a bc 5b 6c 9a 3b fb 9e 3b bc
       0.016862731 -0.014320536 0.004712624 -0.011451478
000050 8f 71 98 bc 8a ab ca 3c 32 5c 32 3c d1 52 4d 3c
       -0.018608836 0.02474 0.010886239 0.012531952
000060 92 80 e3 3a ee fb ed 3c 7f 36 06 ba d8 72 e1 3b
       0.0017357043 0.029050793 -0.0005119815 0.0068801455
000070 00 af 47 3c a7 2a 9c bc 5d 78 a7 3c c4 2e a0 3b
       0.012187719 -0.019063307 0.020443136 0.0048883874
000080 87 b4 86 3c db 06 53 bc 4b 88 91 bc fb e7 af 3c
       0.016443504 -0.012880052 -0.017765185 0.021472922
000090 b2 4c a0 3c 83 65 66 39 48 a1 84 3c c1 5e 98 bc
       0.019567821 0.00021972325 0.016190186 -0.01859987
0000a0 8b ff a7 bc 55 89 00 bc 45 d7 2c 3c 3b 7e ea 3c
       -0.020507595 -0.0078452425 0.010549371 0.028624645
0000b0 2b 54 05 bc 4f 2f d0 3c 71 91 e6 bc b3 e3 08 3b
       -0.008137743 0.025413183 -0.028145524 0.0020887672
0000c0 39 b3 d0 3c e8 e6 c2 3a 9e e7 7d 3c 96 ed ea 3c
       0.025476085 0.0014869841 0.015497116 0.028677743
0000d0 88 e6 ef 3c 9b 2b 41 bc d9 94 7e 3b ff 19 c5 bc
       0.02928473 -0.0117901815 0.0038846044 -0.024060247
0000e0 ed 2f 87 3c 84 dd f8 bb 3a 7b b9 bc dc 27 98 3c
       0.016502345 -0.007594766 -0.022641767 0.018573694
0000f0 bb 9c 81 b8 74 77 f2 bb 10 c3 ea 3c 78 eb a6 bc
       -6.180393e-05 -0.007399494 0.028657466 -0.020375952

layer2.1.weight f4 [64]
000000 c9 68 80 3f 4b f7 7f 3f 24 cc 80 3f 1d 44 80 3f
       1.0031978 0.99986714 1.0062299 1.0020787
000010 cd 66 7f 3f 96 dc 7c 3f ba 0b 7e 3f 9c 0d 7f 3f
       0.99766237 0.9877409 0.99236643 0.9963014
000020 18 d3 80 3f 51 84 7f 3f 9e 5e 81 3f 90 d1 7e 3f
       1.0064421 0.99811274 1.0107 0.99538517
000030 3e 36 80 3f 72 d4 7f 3f a5 67 7f 3f e1 53 80 3f
       1.0016553 0.9993354 0.99767524 1.0025598
000040 63 e3 7f 3f 33 52 80 3f 24 7f 80 3f 59 2b 7f 3f
       0.9995634 1.0025085 1.00388 0.9967552
000050 77 76 80 3f f1 76 7f 3f 5d a2 7f 3f f4 5c 80 3f
       1.0036153 0.99790865 0.9985712 1.0028367
000060 cb f2 7e 3f ec b9 7e 3f 39 bb 7e 3f fb 77 84 3f
       0.9958922 0.99502444 0.9950443 1.0349115
000070 58 c1 86 3f 4f 4a 7f 3f 54 16 7f 3f bf 46 80 3f
       1.0527754 0.9972276 0.99643445 1.002159
000080 77 52 7d 3f 80 0a 80 3f d3 72 7f 3f f8 ee 83 3f
       0.98953956 1.0003204 0.9978458 1.0307302
000090 4f 56 80 3f 85 71 80 3f 69 82 80 3f 4b 23 80 3f
       1.0026339 1.0034643 1.0039798 1.001077
0000a0 26 17 80 3f 00 67 7f 3f 4b 6a 7f 3f e8 92 7f 3f
       1.0007064 0.9976654 0.99771565 0.99833536
0000b0 98 35 7f 3f 2c b1 80 3f 2e 5b 7f 3f d3 bc 7f 3f
       0.9969115 1.0054069 0.99748504 0.998975
0000c0 8c 7e 83 3f 6f 4a 80 3f 9b db 7e 3f 94 7d 7f 3f
       1.0272994 1.0022715 0.9955384 0.9980099
0000d0 c2 de 7f 3f 02 49 80 3f 7e b1 7e 3f ca 59 80 3f
       0.99949276 1.002228 0.9948958 1.0027401
0000e0 a0 81 7f 3f 26 41 80 3f de 87 7f 3f fa 7d 7f 3f
       0.9980717 1.0019882 0.9981669 0.998016
0000f0 6a e2 7e 3f 78 b3 7f 3f b4 44 80 3f a9 2c 7f 3f
       0.9956423 0.9988322 1.0020967 0.9967752

layer2.1.bias f4 [64]
000000 b9 7c 91 bb de ef 87 bb 23 dd 4d bc 04 e5 05 bb
       -0.004439917 -0.0041484674 -0.01256493 -0.0020430693
000010 06 a3 cb bb 14 6f 3d bb a0 63 be 3a 76 5e d8 39
       -0.0062145023 -0.002890532 0.001452554 0.0004126911
000020 eb 27 20 bc 76 c6 f4 3a c1 7a 58 bc 87 d7 4e bc
       -0.009775142 0.0018674869 -0.013212861 -0.012624628
000030 b9 ae f1 bb db f2 ca bb 9d 95 4a bb 6b 3d ac 3c
       -0.007375565 -0.0061935014 -0.003091193 0.02102538
000040 41 1d b9 3a 99 1c 1d bc d3 25 18 bc 90 ac 0f 3b
       0.0014123098 -0.009589338 -0.009286362 0.0021922924
000050 5f b9 91 bc 65 d1 a7 bb df 61 9b bb 9d 68 59 3c
       -0.017788587 -0.0051213973 -0.0047418918 0.013269571
000060 2d e6 22 bc 9b 54 7c bb f2 84 86 bb ef 01 c0 bc
       -0.0099425735 -0.0038502577 -0.004105204 -0.023438422
000070 6d 6d 57 bd 31 83 12 3b 3f a0 e7 bb 17 3f 9f bb
       -0.05259459 0.0022356028 -0.0070686634 -0.004859816
000080 86 cc d7 bc 31 19 37 ba d3 c2 47 ba 86 1c 85 bd
       -0.026342642 -0.000698465 -0.00076202786 -0.06499581
000090 ca 84 5d bb 8e 22 57 bc 24 bd 36 3c f0 a4 a1 bb
       -0.0033801072 -0.013130797 0.011153493 -0.004932992
0000a0 22 49 be ba 2b d2 4f 3b 94 4b 12 3b 06 35 a2 bb
       -0.0014517645 0.0031710963 0.002232288 -0.0049501685
0000b0 12 45 ca bb 43 3b 33 bc 5c 1d 9c bb 6b 31 1d 3b
       -0.0061727846 -0.010939422 -0.004764242 0.0023985754
0000c0 41 7e c4 bc b3 e5 70 bb 5e a0 8b 3b 89 ab 3b 3b
       -0.023985984 -0.0036758005 0.0042610606 0.0028636178
0000d0 fe 41 27 38 82 cc ae bb a4 d9 82 bc df 84 87 bb
       3.9877363e-05 -0.005334438 -0.01597292 -0.0041357125
0000e0 c7 b2 3b 3b f8 c7 7f bb eb 8a 16 3b 0b 8b 68 bb
       0.0028640495 -0.0039029103 0.0022970985 -0.0035483267
0000f0 d4 32 6f bb 24 7f d4 bb 3a 6f 45 bc 4b 1d 84 bc
       -0.0036498802 -0.006484883 -0.012050444 -0.01612725

layer2.1.running_mean f4 [64]
000000 2e ef 0b 3f 92 6b c8 3e 35 c3 90 3e 05 91 37 3e
       0.54661834 0.3914457 0.2827393 0.17926414
000010 c6 c7 07 3f ee 01 96 bf dd d0 ac 3f 52 9e 1c bf
       0.53039205 -1.1719339 1.350124 -0.6117908
000020 9e 39 c6 3e 5c 8b ca be a5 52 9d 3e cb fe 42 3f
       0.38715833 -0.39559448 0.30727115 0.76170033
000030 a6 6d 23 3e dc 53 99 3e 44 c0 c1 be 9f b4 97 bf
       0.15959796 0.29946792 -0.37842 -1.1851996
000040 9a 1c ae bf c0 76 e5 3e c8 68 dc 3e 5d bb 40 bf
       -1.3602479 0.44817162 0.43048692 -0.75285894
000050 a3 98 33 3c 0c 27 30 3e 3e 73 5e 3e da 16 54 bf
       0.010961684 0.17202395 0.21723649 -0.8284737
000060 94 5a 8b be cf b4 bb 3c 3d 7a 09 be 1e b3 cf 3e
       -0.27217543 0.022913365 -0.13425536 0.40566343
000070 40 c0 84 3e cb 8f e7 be bb 60 ca 3d 1b 14 75 3f
       0.25927925 -0.45226893 0.09881731 0.95733804
000080 8d 13 af 3d 50 22 dc 3c 4e 30 7f 3f db 9d c0 3e
       0.08548651 0.02687183 0.9968308 0.37620434
000090 ba e7 3a 3e d9 0e cb 3e da ef 26 bf a2 1e 1b 3f
       0.18252459 0.39659765 -0.65209734 0.60593617
0000a0 8e 6a a0 3e 1f 1d e5 be b5 b5 26 3f fc 37 3b 3f
       0.31331295 -0.4474878 0.6512101 0.731323
0000b0 98 81 9b bd e3 60 89 3e 49 d6 07 3f 87 64 79 bf
       -0.075930774 0.2683173 0.5306135 -0.9741902
0000c0 83 0c 9a 3e ce 66 db 3e 19 79 11 bf a6 27 e4 be
       0.3008767 0.4285187 -0.56825405 -0.445615
0000d0 a3 a4 9a 3c b5 04 d0 3e df 4e d6 3e fe 0b 40 3f
       0.018877333 0.4062859 0.4185705 0.750183
0000e0 6d 50 03 bf 9c d2 8b 3f 4b 11 ab 3e ca b0 0f be
       -0.51294595 1.0923648 0.3341163 -0.14032283
0000f0 40 f2 ce bd f0 9d 8f 3e c6 29 a0 3e 27 52 b5 bc
       -0.10104799 0.28050184 0.3128187 -0.0221339

layer2.1.running_var f4 [64]
000000 e0 2e c2 3e 3a 6e 83 3f 12 0f b7 3e 7b 78 95 3e
       0.37926388 1.0268013 0.35753685 0.29193482
000010 64 d1 ad 3f 5d 4b dd 3e 88 f4 eb 3e 7c cc 16 40
       1.3579526 0.4322156 0.46085 2.3562307
000020 88 1f 00 3f 8d a7 87 3f 03 f1 e6 3e 9a 06 0a 3f
       0.5004811 1.0598007 0.45105752 0.53916323
000030 19 c2 cf 3e e7 9c cb 3e 98 4f 85 3f a0 80 47 3f
       0.40577772 0.39768144 1.0414915 0.7793064
000040 6c 47 a5 3f 86 a7 e3 3e 9e 43 cc 3e 1b e3 36 3f
       1.2912421 0.44463748 0.39895338 0.71440285
000050 c0 23 c5 3e 64 1b 99 3e 2b 0f 51 3f cd ca 37 3f
       0.38503838 0.2990371 0.8166377 0.71793824
000060 c2 cc 6c 3f d0 b3 72 3f d1 5c 87 3f 68 82 cd 3e
       0.92499936 0.9480562 1.05752 0.40138555
000070 ca 0a 5b 3e 2e c0 cd 3f a4 b6 77 3f 80 32 40 3f
       0.21390834 1.6074274 0.9676306 0.75077057
000080 b9 93 3c 3e a9 a5 4a 3f 37 c5 c8 3f 6e 30 93 3e
       0.18415727 0.7915903 1.5685185 0.28747886
000090 b0 98 e0 3e b9 00 ea 3e ba 1b 9a 3f 04 86 42 3f
       0.4386649 0.45703676 1.2039711 0.7598574
0000a0 65 16 6a 3e 3d e2 8f 3f 65 24 d7 3f 02 88 97 3f
       0.22860105 1.1240917 1.6807982 1.1838381
0000b0 db 47 e2 3e 55 38 c4 3e 21 5e 80 3e a0 31 04 40
       0.44195446 0.38324228 0.25071815 2.0655289
0000c0 fe e0 b2 3e 35 f3 2a 3f e5 15 0a 3f 10 bb 70 3f
       0.3493728 0.66777354 0.5393966 0.94035435
0000d0 54 ad 90 3e 77 b1 a0 3e ef 4a e5 3e 9e fe 34 3f
       0.2825724 0.31385395 0.44783732 0.70701015
0000e0 b1 0d 3f 3f 0f 6b 9f 3f 5d aa a9 3f 04 95 70 3f
       0.74630266 1.2454547 1.3255116 0.9397738
0000f0 dc 47 cc 3f c2 84 98 3e 42 59 a3 3e 9e f0 49 3e
       1.595943 0.29788786 0.31904036 0.19720694

layer3.0.weight f4 [1, 64, 3, 3]
000000 ef b5 f2 3a 41 83 a4 bc 7b fd 3d bc 9d 1c b3 3c
       0.0018517355 -0.020082118 -0.011596079 0.02186423
000010 a3 9b 90 3c 85 b2 c1 3a c8 4a 30 3d 62 18 9c 3c
       0.017652338 0.0014777934 0.043040067 0.019054595
000020 4e 89 bc 3a 64 d7 8f 3c 3f de 9c 3a 7a 0a 09 bc
       0.0014384182 0.017558761 0.001196809 -0.008364314
000030 96 01 14 bd ae 1d 29 bd f0 02 c2 bc d8 d5 b8 bc
       -0.036134325 -0.04128807 -0.023683041 -0.022562906
000040 e5 1e 93 3c f8 76 b5 bc a0 8d b5 bb bd 82 01 bd
       0.017959068 -0.022151455 -0.0055405647 -0.031618822
000050 a0 1b 0a bd 27 60 ba 3c 4a 09 d0 bb 99 97 b3 bc
       -0.03371775 0.022750927 -0.0063487636 -0.021922873
000060 48 e0 df 3c 06 15 1a 3d 0f 07 35 bd b9 9b 1a bd
       0.027328625 0.037617706 -0.044196185 -0.037746165
000070 19 36 b2 3c 20 6c e3 bc 41 7f b8 bb 36 02 cc 3c
       0.021754311 -0.027761519 -0.005630404 0.024903398
000080 60 69 b8 bc 54 5a b2 3c 03 f6 8f 3c a1 fd f0 3c
       -0.022511184 0.021771587 0.017573362 0.029417815
000090 8f bd c0 3b 9c 86 c2 bc 00 53 11 bd e8 31 c2 bc
       0.005881972 -0.023745827 -0.035479546 -0.023705438
0000a0 32 ce 2a 3c b6 17 4d 3b 41 aa aa 3c 60 b4 0a bd
       0.010425137 0.003129465 0.020833137 -0.033863425
0000b0 77 90 81 3c 72 c9 84 bc 5c a8 cc bc b4 9f a3 bc
       0.015815957 -0.016209338 -0.024982624 -0.019973613
0000c0 cc 70 13 bb 7c cd eb bb 10 8c 6c bc 11 0e 08 3c
       -0.0022497652 -0.0071961265 -0.01443769 0.008304135
0000d0 eb cd 8d bc 9d 75 c5 b9 8f d1 7a 3b b8 31 c7 3c
       -0.017310103 -0.00037662397 0.003827188 0.0243157
0000e0 ff 8d b4 bc 6d 77 a9 3c 2b eb ea 3c 1b de 09 3c
       -0.022040365 0.02068683 0.02867659 0.0084147705
0000f0 c6 2b ab 3c ca 30 b4 b8 2a c3 6a bc 81 ac 0a 3d
       0.020894896 -8.5921565e-05 -0.014328757 0.03385592
000100 85 29 14 bd 16 08 89 bc d1 48 2a 3d b6 95 6d bb
       -0.03617241 -0.016727488 0.04157335 -0.0036252565
000110 fb 5d 13 bd 79 bd 14 bd 69 82 16 3d 85 f9 16 3d
       -0.0359783 -0.036313508 0.036745463 0.036859054
000120 5b 6d f7 3a 45 3b c9 39 56 00 f9 3c 38 a3 99 bc
       0.0018877195 0.00038381867 0.030395668 -0.018754587
000130 48 6a 4f ba 9e 68 0a bd a6 b8 3c bd c4 83 69 3b
       -0.00079122605 -0.033791177 -0.046074532 0.0035631517
000140 f3 08 51 3c ac 57 4f bb c9 96 a9 3c 6f 05 87 3c
       0.012758481 -0.003163795 0.020701783 0.016482083
000150 0e f9 0c 3c 33 86 2e 3b f6 1f bc 3b 82 94 98 3c
       0.008604301 0.0026630282 0.0057411147 0.018625502
000160 ac c3 0c 3d 45 16 a5 3c 53 02 b2 3c 86 a4 35 bb
       0.034366295 0.02015222 0.021729624 -0.0027716472
000170 ff 91 0d 3d df 26 ab 3c 14 69 06 3d 44 ed 4a bc
       0.03456306 0.020892559 0.032815054 -0.01238567
000180 2b 19 39 3c 29 dd e5 bc 50 6f 3b bd 09 cb ff 3c
       0.011297504 -0.028059559 -0.045760453 0.031224744
000190 c4 0f 6b bc 22 39 a7 bc f6 88 45 bc 5b 95 c4 3c
       -0.014347021 -0.020412985 -0.01205658 0.023997
0001a0 dc 3a 01 bd 04 73 28 bd f5 27 87 3c 0d f4 26 bc
       -0.031550273 -0.041125312 0.016498545 -0.010190022
0001b0 76 c2 df bc 4d 69 cb ba 2b f5 a5 bc a0 0a 5c bc
       -0.027314406 -0.0015519053 -0.020258507 -0.013430268
0001c0 5b 05 f2 bc 6a 96 2b bc 87 a0 f5 3c 49 c3 6e bc
       -0.02954357 -0.010472873 0.029983772 -0.014572927
0001d0 c9 f0 26 bd 56 0d f0 bc 84 46 08 bd fc 72 02 3d
       -0.040756974 -0.029303234 -0.033270374 0.03184794
0001e0 18 f6 8f 3c c7 0a e5 3c 2d 39 13 3d 4e a0 13 3b
       0.017573401 0.02795924 0.0359432 0.002252597
0001f0 a2 6b 08 3d eb 78 77 bc 9e 6e 9f 3c a7 71 5a 3c
       0.03330577 -0.015104513 0.019461926 0.013332761
000200 88 7a 22 3d 5f eb 00 3d e9 a0 60 bc 44 ee 83 bc
       0.039667636 0.031474467 -0.013710239 -0.016104825
000210 cd cb 35 3b 3d 97 16 3b b1 03 e7 3c 4b f9 05 bd
       0.0027739883 0.0022978329 0.028200002 -0.032708447
000220 ad 33 3a 3c c1 d3 f5 bc 46 bb 44 bd e3 1f ee bc
       0.0113648595 -0.030008199 -0.04803016 -0.02906794
000230 09 3b c9 3c 2a 35 3a 3c 16 2f fe bb 92 c0 56 3b
       0.024564283 0.011365214 -0.007757078 0.003276859
000240 eb 89 87 3c 6a fc 8d bb 50 de 84 3c 25 cb 91 bc
       0.016545257 -0.0043330686 0.016219288 -0.017797062
000250 43 c1 ba 3c 7a 6a ae bc f3 ee f6 3c a6 c3 0d bd
       0.022797232 -0.021291006 0.030143237 -0.034610413
000260 7a 71 15 bd 22 6b 1a bb 02 c5 2b bd c1 49 62 bb
       -0.036485173 -0.0023562391 -0.04193593 -0.0034528824
000270 fe 3b bc 3c 08 de 08 3c dc ef 1a 3c ff ca 8f bc
       0.022977825 0.008353718 0.009456601 -0.01755285
000280 47 13 f1 bc 49 bc 0d bd 3d 16 34 bc df b0 02 bc
       -0.029428137 -0.03460339 -0.01099163 -0.00797674
000290 75 aa 72 3c 9d c7 31 bd d6 3c e5 bc 00 b0 81 bc
       0.014811148 -0.043403257 -0.02798311 -0.015830994
0002a0 5a 0a a3 ba 40 b2 3d bd 1f 5e e4 bc 46 16 07 bc
       -0.0012438998 -0.04631257 -0.027876912 -0.0082450565
0002b0 49 b2 05 bd b1 22 2a 3c 06 18 9d 3c ab da 0d bd
       -0.03264073 0.010384248 0.019176494 -0.034632366
0002c0 d0 1f 18 3d 97 a2 16 3d 91 6c 3b bc 11 dc 08 bc
       0.037139714 0.03677615 -0.0114394585 -0.008353249
0002d0 0d ee c8 bc ae 2f 0b bd 0b 02 d8 bc 4d d1 a3 bc
       -0.024527574 -0.033981018 -0.026368162 -0.019997263
0002e0 6d 5b e0 bc 18 5d 22 bc 21 2d 54 3c d5 55 05 bd
       -0.027387345 -0.009909891 0.012950213 -0.03255256
0002f0 fc 8e 38 3c 62 d5 2e 3c 90 e2 2c 3d 95 03 24 3d
       0.011264559 0.010670992 0.042208254 0.04004248
000300 4f e6 e6 bc e9 9b bf ba c8 45 0a bd 02 35 d2 bc
       -0.028185992 -0.0014618608 -0.033757955 -0.025660042
000310 56 12 28 3a cb b2 e9 bc c4 c9 9e bc 1b 4d c4 bc
       0.00064114237 -0.028527638 -0.019383319 -0.023962548
000320 23 22 a8 3b bb 9d 99 bc e7 f3 fb 3c 9d 5c a7 bc
       0.0051310225 -0.01875197 0.03075595 -0.020429904
000330 79 c7 c5 bc 76 3a 6c bb 95 5c 2c bb 39 2b b9 bc
       -0.024142968 -0.0036045588 -0.00263003 -0.022603618
000340 b4 6a 41 3c a4 12 7e 3c 63 b1 39 3c ae 96 2f bc
       0.011805225 0.015507374 0.011333796 -0.010717077
000350 36 90 21 bd 5c 56 b3 bc e4 db 94 bc 3c d6 9a bc
       -0.03944417 -0.021891765 -0.018171258 -0.018900983
000360 7c 24 bf bb c1 9e fb 3c a3 36 c2 bc fb 8f 22 3d
       -0.0058332067 0.030715348 -0.023707693 0.03968809
000370 95 d8 0a 3c 3a 85 c7 bc 2c cf 0d bc 89 c0 fb bc
       0.008474489 -0.02435552 -0.008655351 -0.030731456
000380 cd 01 d2 3c 72 c8 a8 bc 90 b1 ad bc f7 39 38 ba
       0.025635624 -0.020603392 -0.021202832 -0.00070276804
000390 99 70 f4 bc 8c e7 d0 bc 94 77 36 3c 51 04 cd 3c
       -0.029838847 -0.025501035 0.011136908 0.025026472
0003a0 b7 d9 86 bc 9a 55 db 3c fa 24 99 3c 82 b9 b4 3c
       -0.016461236 0.026774216 0.01869439 0.022061113
0003b0 0b 15 ec 3c 8d af cd bc 75 c3 b3 bc bc 0a 10 bd
       0.028818628 -0.025108123 -0.021943787 -0.035166487
0003c0 12 31 02 3d 27 48 dc 38 03 f0 bf bc 87 64 9c bb
       0.03178508 0.00010503857 -0.023429876 -0.004772726
0003d0 4c a5 03 bd 36 6d e6 3c 77 11 d1 bb 6c 3d 1f bd
       -0.03214006 0.028128248 -0.006380256 -0.038876936
0003e0 58 e8 af bb 86 1a 35 bc 2b bf 43 bc 1d ed db 3c
       -0.0053682737 -0.011053687 -0.011947433 0.026846463
0003f0 94 b5 d4 3c 15 e6 74 3c 5f 46 e2 3c ba da d6 bc
       0.02596549 0.014947434 0.027621446 -0.026227344
